bid/first.ckpt (torch, 632337 bytes, 131 tensors)

layer1.0.conv1.weight f4 [5, 5, 3]
0	0x3e2fe48f	0.17177032
1	0x3e13fcce	0.14451906
2	0xbcc391b7	-0.023873193
3	0x3d813965	0.06309775
4	0xbc3737fb	-0.01118278
5	0xbe00ebec	-0.12589997
6	0x3dd29724	0.10282734
7	0xbde8b5aa	-0.11362775
8	0xbdc143d0	-0.09436762
9	0xbe2613e4	-0.16218525
10	0xbe69cb19	-0.22831382
11	0x3e4348ec	0.19070786
12	0xbe3eff0d	-0.18651982
13	0xbe43c9e2	-0.19119981
14	0x3ca2e571	0.019884797
15	0x3e4d4838	0.2004708
16	0xbe4040c5	-0.18774708
17	0x3c001ac2	0.00781888
18	0xbde2556d	-0.1105145
19	0x3cde7fc8	0.02716054
20	0xbe4fbbff	-0.20286559
21	0x3e366f44	0.17815882
22	0x3e6969d1	0.22794272
23	0xbe76dd7e	-0.2410793
24	0xbd2f9994	-0.042871073
25	0x3e1e2c78	0.15446651
26	0xbd7c9f87	-0.061675575
27	0xbe88367a	-0.26604062
28	0xbde85fa8	-0.1134637
29	0xbe47be8e	-0.19506285
30	0x3dfef364	0.12448767
31	0x3dcd5cca	0.10027464
32	0x3e2da445	0.16957195
33	0x3e1aa2ec	0.15101212
34	0x3e1fe2de	0.15613887
35	0xbdd27c64	-0.10277632
36	0xbe616603	-0.2201157
37	0x3dc6f7d1	0.09715236
38	0xbd1f8599	-0.038945768
39	0xbbf507f2	-0.007477754
40	0x3e033106	0.1281167
41	0x3e050c09	0.12992872
42	0xbe8eaaf2	-0.27864796
43	0x3d0458d3	0.032311272
44	0xbe211f89	-0.15734686
45	0xbd866181	-0.06561566
46	0x3c106634	0.00881343
47	0x3df0d8a2	0.117600694
48	0xbd0c845c	-0.034305915
49	0x3e486f08	0.19573605
50	0x3e9bdb19	0.30440596
51	0x3decf65a	0.11570425
52	0x3e58a74e	0.21157572
53	0x3b070adf	0.0020605845
54	0x3e50f188	0.20404637
55	0x3d8a8c6a	0.06765063
56	0xbe38b094	-0.18036109
57	0xbe51714b	-0.20453374
58	0x3c15044f	0.0090952655
59	0x3ca7d023	0.02048499
60	0xbcd08d22	-0.025457922
61	0x3db4dbcf	0.08830988
62	0xbd57d7fe	-0.05269622
63	0x3d7ef258	0.062242836
64	0xbe3edfbe	-0.18640038
65	0x3e82216a	0.25416118
66	0xbd4bf815	-0.049797136
67	0xbda09e1a	-0.078426555
68	0xbe30fb06	-0.17283258
69	0x3e5ae5f8	0.21376789
70	0xbe6cef65	-0.23138197
71	0x3d4ce907	0.05002692
72	0xbe40b050	-0.18817258
73	0x3e3eaebb	0.18621342
74	0xbe6b2af1	-0.229656

layer1.0.bn1.weight f4 [5]
0	0x3f6f5907	0.9349522
1	0x3f78bcf2	0.9716331
2	0x3f824b1a	1.0179169
3	0x3f821a9d	1.0164372
4	0x3f82fa3b	1.0232614

layer1.0.bn1.bias f4 [5]
0	0xbdda6ac4	-0.10664895
1	0xbd3f08e5	-0.04663934
2	0x3d31b9ad	0.043389965
3	0xbd55d771	-0.052207414
4	0xbdb11ebc	-0.0864844

layer1.0.bn1.running_mean f4 [5]
0	0x3f7aa006	0.97900426
1	0x3ea516f7	0.32244083
2	0x3f56a9d0	0.83852863
3	0xbcc73471	-0.024316998
4	0x3efc36b6	0.4926049

layer1.0.bn1.running_var f4 [5]
0	0x3e06ff8e	0.13183424
1	0x3c5a9f39	0.013343626
2	0x3e774e15	0.2415088
3	0x3d3f1a89	0.046656165
4	0x3c1e2e17	0.009654543

layer1.0.conv2.weight f4 [5, 5, 3]
0	0x3e00d473	0.12581043
1	0xbdf38bf5	-0.11891929
2	0x3e3f7fd1	0.18701102
3	0xbde13869	-0.109970875
4	0x3db14935	0.08656541
5	0x3e12953d	0.14314742
6	0x3dc96724	0.09834126
7	0xbd9fb389	-0.077979155
8	0xbe0674af	-0.13130449
9	0xbda3d3d1	-0.07999385
10	0xbcef0f39	-0.029182063
11	0x3e2854dc	0.16438621
12	0xbdad6471	-0.08466423
13	0x3e933a26	0.287553
14	0xbcecc0c1	-0.028900506
15	0x3e4dfe37	0.20116507
16	0xbd0836dd	-0.033255447
17	0x3e123bbd	0.14280601
18	0xbdf87237	-0.1213116
19	0xbd9fc9aa	-0.07802136
20	0x3de1b9e8	0.11021787
21	0xbe30713f	-0.172307
22	0xbd4a9176	-0.04945513
23	0x3d091fe7	0.03347769
24	0xbe5a4625	-0.2131582
25	0xbcc5e490	-0.024156839
26	0xbd1bc084	-0.038025394
27	0xbe0f9d8b	-0.14024942
28	0xbe66f392	-0.22553852
29	0x3e75a4ff	0.23988722
30	0xbe50d8aa	-0.20395151
31	0xbe8ab911	-0.2709432
32	0x3d40a243	0.047029745
33	0xbe0b9c36	-0.13633808
34	0xbdbe744d	-0.09299526
35	0x3e74578e	0.23861524
36	0x3e731b45	0.23740871
37	0xbd44745d	-0.047962535
38	0xbe3dedf3	-0.18547802
39	0x3dc6f757	0.09715145
40	0x3e9c99fb	0.30586228
41	0x3dc91148	0.09817749
42	0x3e31e63e	0.17372987
43	0xbd9a0579	-0.07520575
44	0xbd7a22ce	-0.06106835
45	0xbd8da1cb	-0.06915625
46	0x3bf5c247	0.0074999663
47	0xbca2d992	-0.019879136
48	0x3e92e1fc	0.28688037
49	0x3e06e961	0.13174964
50	0x3e38ad25	0.180348
51	0x3e2365ab	0.15956752
52	0x3e063331	0.13105465
53	0x3da27d29	0.07934029
54	0xbe1940a4	-0.14966065
55	0xbe3c5acc	-0.18394011
56	0x3e4e76b0	0.20162463
57	0xbe17baca	-0.14817348
58	0xbe84d4e1	-0.25943664
59	0x3dba795a	0.09105177
60	0x3c0d75eb	0.008634071
61	0xbc9e4dba	-0.019324172
62	0xbda0c647	-0.078503184
63	0xbdbf6d71	-0.09347046
64	0x3c45d627	0.012074984
65	0xbdcc3e5b	-0.09972831
66	0xbe39244b	-0.18080251
67	0x3db76bd0	0.089561105
68	0xbe0a1da9	-0.13487877
69	0xbe4e5c96	-0.20152506
70	0x3e84d6ac	0.25945032
71	0x3e464718	0.19363058
72	0xbe431ae2	-0.19053224
73	0xbd1bf8fd	-0.03807925
74	0x3d05a1da	0.032625057

layer1.0.bn2.weight f4 [5]
0	0x3f90d501	1.1315004
1	0x3f771b46	0.9652599
2	0x3f87179d	1.0554081
3	0x3f82a927	1.0207871
4	0x3f87d0af	1.061056

layer1.0.bn2.bias f4 [5]
0	0x3d7f7cda	0.062374927
1	0x3cd4478e	0.025913026
2	0xbcad4d2b	-0.02115496
3	0xbc6dc0e0	-0.014511317
4	0x3cdbc93e	0.026829358

layer1.0.bn2.running_mean f4 [5]
0	0x3d88ef96	0.066863224
1	0xbdba66f8	-0.09101671
2	0x3d0f3e1d	0.034971345
3	0x3dba8188	0.091067374
4	0xbdce2430	-0.10065496

layer1.0.bn2.running_var f4 [5]
0	0x3cadda6d	0.021222318
1	0x3d509fb5	0.05093356
2	0x3da2896d	0.07936368
3	0x3e539743	0.2066317
4	0x3df049aa	0.117328

layer1.0.se.fc.0.weight f4 [1, 5]
0	0xbdbc5c31	-0.091972716
1	0xbd966cac	-0.07344946
2	0x3e9a1ceb	0.30100188
3	0x3c7c708f	0.015407695
4	0xbe87d62e	-0.26530594

layer1.0.se.fc.2.weight f4 [5, 1]
0	0xbf39b179	-0.72536427
1	0xbf53c860	-0.82727623
2	0xbe3c6119	-0.18396415
3	0x3f00fa46	0.50381887
4	0xbef9e3d6	-0.48806638

layer1.0.shortcut.0.weight f4 [5, 5, 1]
0	0xbebf4290	-0.3735547
1	0x3ec02fb8	0.37536407
2	0xbe47b82e	-0.19503853
3	0xbdf4c50d	-0.11951647
4	0x3c3f5c7c	0.011679765
5	0xbe0591b8	-0.13043869
6	0xbe84e65c	-0.25957
7	0x3d35583a	0.044273593
8	0xbe34dd83	-0.17662625
9	0x3ee448bd	0.44586745
10	0x3e707fb5	0.23486216
11	0x3d6581b9	0.056031916
12	0xbec989d8	-0.3936298
13	0xbed2f0dc	-0.41199386
14	0x3d78a4d7	0.06070408
15	0xbe175efe	-0.1478233
16	0x3e7ac3b8	0.24488723
17	0x3ece6b61	0.403163
18	0x3eb985e5	0.36234966
19	0xbea5ef50	-0.32409143
20	0x3e31b109	0.1735269
21	0x3ee4bb14	0.4467398
22	0xbe559bbd	-0.2086019
23	0x3e8909e2	0.26765352
24	0x3df349c9	0.11879308

layer1.0.shortcut.1.weight f4 [5]
0	0x3f699d6b	0.91255826
1	0x3f787c54	0.9706471
2	0x3f781f5d	0.96922857
3	0x3f7b9d0b	0.98286504
4	0x3f7de684	0.99179864

layer1.0.shortcut.1.bias f4 [5]
0	0x3d7bba95	0.061457235
1	0x3cdac05c	0.026703052
2	0xbca09085	-0.019600162
3	0xbc5c22c3	-0.013436022
4	0x3cc879a5	0.024472067

layer1.0.shortcut.1.running_mean f4 [5]
0	0x3ca1c5a7	0.019747568
1	0xbf15008f	-0.5820398
2	0x3f864b5a	1.0491745
3	0xbf02ed59	-0.51143414
4	0x3e64f3d5	0.2235864

layer1.0.shortcut.1.running_var f4 [5]
0	0x3e731440	0.23738194
1	0x3d282e40	0.041059732
2	0x3da4cb5a	0.08046599
3	0x3d3e991e	0.046532743
4	0x3dbd27e7	0.092361264

layer1.1.conv1.weight f4 [5, 5, 3]
0	0x3cad55be	0.02115905
1	0xbd9886f2	-0.07447614
2	0x3e6c6aac	0.23087567
3	0x3e8dae75	0.27672163
4	0xbe337178	-0.17523754
5	0x3e2787f0	0.1636045
6	0x3e1da89e	0.15396354
7	0x3ca21f55	0.01979033
8	0xbe4bec4b	-0.19914357
9	0x3c12648b	0.008935104
10	0x3e805559	0.25065115
11	0x3d15fcf7	0.0366182
12	0x3db9212a	0.09039529
13	0xbe1ce227	-0.15320645
14	0xbe97670e	-0.29570812
15	0xbe2d4e08	-0.16924298
16	0x3aee0058	0.0018158061
17	0xbe14f6be	-0.1454725
18	0x3e0cb7e8	0.1374203
19	0xbe5f16ad	-0.21785994
20	0xbe6ef8e1	-0.23337127
21	0xbe26c062	-0.16284326
22	0x3e8a7d5d	0.2704877
23	0xbdd95ce8	-0.106134236
24	0x3e83a311	0.25710347
25	0xbd86b2c5	-0.06577066
26	0xbd796d01	-0.06089497
27	0xbd8878a4	-0.066636354
28	0x3e3ef86a	0.1864945
29	0xbe63f175	-0.22260077
30	0x3d4e13c7	0.05031183
31	0xbe859032	-0.26086575
32	0xbe707e43	-0.23485665
33	0xbe456fce	-0.19280931
34	0xbd12b80a	-0.035820045
35	0xbe146d66	-0.14494857
36	0x3dc7facf	0.09764635
37	0x3dee3098	0.11630362
38	0x3ac88681	0.0015298874
39	0xbdd50083	-0.10400488
40	0x3c3faf2e	0.011699481
41	0xbdefdbde	-0.11711858
42	0x3e13de30	0.14440227
43	0xbe7780d7	-0.24170242
44	0xbe6da23c	-0.23206419
45	0xbc3049fb	-0.010759826
46	0x3e042e8e	0.12908384
47	0xbe2a6b81	-0.16642572
48	0x3d96cf3c	0.073637456
49	0xbe0cf041	-0.13763525
50	0xbe5d41a4	-0.21607071
51	0x3e2363ae	0.15955994
52	0x3cc0e0d4	0.023544706
53	0x3e247758	0.16061151
54	0xbe3dd836	-0.18539509
55	0x3e13456b	0.1438195
56	0xbe059bf9	-0.1304778
57	0xbe2efdd3	-0.17089014
58	0x3d2cecd2	0.042218037
59	0x3c165d82	0.009177567
60	0xbe07acb2	-0.13249472
61	0x3e066813	0.13125639
62	0xbdecfcdf	-0.11571669
63	0x3dacb109	0.08432204
64	0xbde6e8c0	-0.11274862
65	0xbd9efee2	-0.07763459
66	0xbd1111dc	-0.035417423
67	0xbd6c105e	-0.057632796
68	0x3e2e306c	0.17010659
69	0xbd55c289	-0.052187476
70	0x3bfbb74a	0.007681762
71	0x3def3435	0.116798796
72	0x3e837a07	0.25679037
73	0xbddcc931	-0.10780562
74	0x3dd370d1	0.103242524

layer1.1.bn1.weight f4 [5]
0	0x3f719f0f	0.9438333
1	0x3f83a126	1.0283554
2	0x3f816cd7	1.011134
3	0x3f8105fe	1.0079954
4	0x3f805683	1.0026401

layer1.1.bn1.bias f4 [5]
0	0x3c1a703c	0.009426173
1	0x3d3a6606	0.045507453
2	0x3d2aac05	0.041667957
3	0x3ca9b63b	0.020716777
4	0x3cc33b5b	0.023832014

layer1.1.bn1.running_mean f4 [5]
0	0x3d4b831f	0.049685594
1	0xbe108bc4	-0.14115816
2	0xbe8c773f	-0.27434728
3	0xbdc325e1	-0.09528709
4	0x3d1f984d	0.038963605

layer1.1.bn1.running_var f4 [5]
0	0x3e57cbe1	0.21073867
1	0x3e3e6f18	0.18597066
2	0x3e5296c5	0.20565327
3	0x3e219e7d	0.15783115
4	0x3dbe31ea	0.09286864

layer1.1.conv2.weight f4 [5, 5, 3]
0	0x3e528259	0.20557536
1	0x3d3a2cf0	0.045453012
2	0x3c0059fc	0.007833954
3	0xbc22ec1d	-0.009943989
4	0x3decc5e7	0.115611844
5	0x3e261f95	0.16222985
6	0xbd5bd925	-0.053673882
7	0xbda32d6d	-0.07967649
8	0x3c98fd20	0.018675387
9	0x3de95bc0	0.11394453
10	0x3dfe16e4	0.1240671
11	0xbb74efb0	-0.003737431
12	0xbd916ba1	-0.07100607
13	0x3e79a349	0.24378695
14	0xbca10084	-0.019653566
15	0x3e61870d	0.22024174
16	0x3e42ca7f	0.19022559
17	0x3d404b3f	0.04694676
18	0x3b511179	0.0031901284
19	0x3e531c17	0.20616184
20	0xbe485497	-0.19563518
21	0xbe1d515e	-0.1536307
22	0x3e575a4e	0.21030542
23	0x3e38f379	0.18061627
24	0x3e315764	0.17318493
25	0xbe06ec52	-0.13176087
26	0xbe112eed	-0.14178057
27	0x3e077ade	0.13230464
28	0x3cdc6fed	0.02690884
29	0xbe267b74	-0.16258031
30	0xbe115da6	-0.1419588
31	0xbdd03bae	-0.10167633
32	0x3e7d78aa	0.24753061
33	0x3df1cf48	0.11807114
34	0x3cd86c13	0.026418721
35	0xbe83f0c9	-0.25769642
36	0xbe1836ed	-0.14864703
37	0xbdaabf40	-0.08337259
38	0xbdf548b2	-0.11976756
39	0xbcd35601	-0.025797846
40	0xbdd5a308	-0.10431486
41	0xbdb607ad	-0.08888183
42	0xbdfdc8d9	-0.12391824
43	0x3d105b90	0.03524357
44	0x3e55075a	0.20803586
45	0xbe07067b	-0.13186066
46	0x3e165f5c	0.14684814
47	0xbd74ac2b	-0.059734505
48	0xbc8e46a3	-0.017367667
49	0xbe29d13e	-0.16583726
50	0xbd17509f	-0.03694212
51	0x3ca98e95	0.020697871
52	0xbdf6eae0	-0.120565176
53	0x3e20cc66	0.15702972
54	0xbda0e64d	-0.078564264
55	0x3df41fa0	0.119200945
56	0x3e64fb0c	0.22361392
57	0x3e1a6193	0.15076284
58	0x3d7f6fcf	0.06236249
59	0x3e4aef8f	0.19817947
60	0xbe49f83d	-0.19723602
61	0x3e0fc745	0.14040859
62	0xbe49381b	-0.19650309
63	0xbe70af91	-0.23504473
64	0xbd136473	-0.035984468
65	0x3d197b18	0.037470907
66	0xbc91e218	-0.017808005
67	0x3e3993b7	0.18122755
68	0xbe21eafd	-0.15812297
69	0x3db61aaf	0.08891808
70	0xbe075699	-0.13216628
71	0xbea5b2bf	-0.32362935
72	0x3e384fec	0.17999238
73	0xbe20d56d	-0.15706415
74	0xbe7be034	-0.24597245

layer1.1.bn2.weight f4 [5]
0	0x3f7ced33	0.9879944
1	0x3f7b8cbb	0.9826161
2	0x3f7c7023	0.9860861
3	0x3f85a171	1.0439893
4	0x3f7d3c6d	0.9892033

layer1.1.bn2.bias f4 [5]
0	0x3c230af9	0.009951347
1	0x3c6d2af6	0.014475575
2	0x3cf61606	0.030039798
3	0x3bdbdcf6	0.00670969
4	0x3c9d6b30	0.01921615

layer1.1.bn2.running_mean f4 [5]
0	0x3e43db0a	0.19126526
1	0x3e197bfe	0.14988706
2	0xbe11f68b	-0.14254205
3	0x3df064e2	0.11737992
4	0xbe88001d	-0.26562586

layer1.1.bn2.running_var f4 [5]
0	0x3daa9f2e	0.08331142
1	0x3df855c6	0.12125735
2	0x3df09145	0.11746458
3	0x3de5e864	0.112259656
4	0x3e20aab0	0.15690112

layer1.1.se.fc.0.weight f4 [1, 5]
0	0x3ea8d0e4	0.3297187
1	0xbea4d7ac	-0.32195795
2	0xbeceb422	-0.40371805
3	0x3eaf548d	0.34244195
4	0xbe118b08	-0.14213192

layer1.1.se.fc.2.weight f4 [5, 1]
0	0x3f050ab7	0.51969475
1	0xbf24d896	-0.64392984
2	0xbe27a606	-0.16371927
3	0xbf33badc	-0.70207
4	0xbdd36b80	-0.103232384

layer1.2.conv1.weight f4 [5, 5, 3]
0	0xbd40d184	-0.04707481
1	0x3db2fbd4	0.08739439
2	0xbdc971d6	-0.098361656
3	0xbe191897	-0.14950787
4	0x3c93b0f0	0.018028706
5	0xbe6062b4	-0.21912652
6	0x3cdd0053	0.026977694
7	0x3dc00750	0.09376395
8	0x3e87cad3	0.2652193
9	0x3e3fe504	0.18739706
10	0xbe48b9d5	-0.1960214
11	0xbe4e0b6a	-0.20121542
12	0x3e3a23aa	0.18177667
13	0xbdba69d3	-0.091022156
14	0x3cfe4e6b	0.031043252
15	0xbdaa1ab4	-0.083058745
16	0x3e49ab06	0.19694147
17	0x3e45fc8c	0.1933462
18	0xbdc79d40	-0.0974679
19	0x3db38480	0.08765507
20	0xbe402f11	-0.18767954
21	0xbdd3a487	-0.103341155
22	0xbcb12161	-0.021622362
23	0x3d9d00b2	0.07666148
24	0xbe556fb5	-0.20843394
25	0xbda03a68	-0.0782364
26	0xbe0be688	-0.1366216
27	0xbdd80015	-0.10546891
28	0xbe3fdf93	-0.1873763
29	0x3d9a3de4	0.07531336
30	0x3de1ff89	0.110350676
31	0xbca4aa67	-0.020100785
32	0xbc2e4697	-0.010636947
33	0xbda92bb7	-0.08260291
34	0xbe48e088	-0.19616902
35	0x3c5bd4c3	0.013417426
36	0xbd9baa4b	-0.0760084
37	0x3de6dce2	0.11272599
38	0x3e3dd61d	0.18538709
39	0x3d330174	0.043702558
40	0xbe138193	-0.14404897
41	0x3d349b40	0.04409337
42	0xbe660cb6	-0.22465786
43	0x3e0135a4	0.12618119
44	0x3e354716	0.17702898
45	0x3e52a682	0.2057133
46	0x3e6a02ba	0.22852603
47	0xbe66e333	-0.22547607
48	0xbe556c71	-0.20842148
49	0x3da5af53	0.08090081
50	0xbe34df4d	-0.17663307
51	0xbe72a32d	-0.23695059
52	0xbdcac61a	-0.09901066
53	0x3de27851	0.11058105
54	0xbde6bb0a	-0.112661436
55	0x3e118a07	0.1421281
56	0x3e9133b4	0.2835976
57	0x3e0abaa9	0.13547768
58	0xbe830d53	-0.25596103
59	0xbd03c974	-0.032174543
60	0x3e25392b	0.16135089
61	0xbe48dd16	-0.19615588
62	0x3e7d39a7	0.24729024
63	0xbdfb7e38	-0.12279934
64	0xbc9d10c7	-0.01917304
65	0xbe79c5bf	-0.2439184
66	0xbdc1a973	-0.09456148
67	0xbe2a76cb	-0.16646878
68	0xbcaa73d6	-0.020807188
69	0x3e06a6e0	0.13149595
70	0x3ccf27ef	0.025287597
71	0xbdb47480	-0.08811283
72	0xbe399e6a	-0.18126836
73	0x3d59f643	0.05321337
74	0xbd037ecd	-0.03210335

layer1.2.bn1.weight f4 [5]
0	0x3f74b181	0.9558335
1	0x3f852ca9	1.0404254
2	0x3f80fab5	1.007651
3	0x3f811a69	1.0086185
4	0x3f719856	0.9437307

layer1.2.bn1.bias f4 [5]
0	0xbd18c6e3	-0.03729905
1	0x3bcc7149	0.0062390906
2	0x3d73c57b	0.059514504
3	0x3c814cbd	0.015783662
4	0xbb4ae854	-0.0030961232

layer1.2.bn1.running_mean f4 [5]
0	0xbd35ec34	-0.044414714
1	0xbe1981a7	-0.14990865
2	0xbc0b47f6	-0.008501044
3	0xbde6a365	-0.11261634
4	0xbe3acd91	-0.1824248

layer1.2.bn1.running_var f4 [5]
0	0x3e409dfa	0.18810263
1	0x3d51c8c9	0.051216874
2	0x3d9dd3b4	0.07706395
3	0x3e0843dd	0.13307138
4	0x3de7d007	0.11318975

layer1.2.conv2.weight f4 [5, 5, 3]
0	0xbe63aa86	-0.22233018
1	0xbabb2ab2	-0.0014279692
2	0x3e2685c4	0.16261965
3	0xbe126400	-0.1429596
4	0x3e4eca81	0.20194437
5	0xbe213933	-0.15744476
6	0xbe5d0b4f	-0.21586345
7	0x3d103139	0.035203192
8	0xbe992f81	-0.29919055
9	0x3e73110e	0.23736975
10	0xbe202f60	-0.15643072
11	0x3dea04fa	0.114267305
12	0x3e39f779	0.1816081
13	0x3b7811d8	0.0037852433
14	0x3e5d5ad6	0.21616682
15	0xbcb91158	-0.022591278
16	0x3cc260bc	0.023727767
17	0xbe02b980	-0.12766075
18	0xbd1a047d	-0.037601937
19	0xbe69fa3b	-0.22849362
20	0x3c369cb3	0.011145758
21	0x3e090b13	0.1338313
22	0xbd390b74	-0.04517694
23	0x3d78a1c8	0.06070116
24	0x3e57958d	0.21053143
25	0xbd047a66	-0.03234329
26	0xbdb41c5c	-0.087944716
27	0xbe2dc2fa	-0.16968909
28	0xbe49912c	-0.19684285
29	0x3bf2f1b3	0.0074140667
30	0xbded440e	-0.11585246
31	0x3dcac755	0.09901301
32	0x3db07f95	0.08618084
33	0xbdcba599	-0.099436946
34	0xbdbed34f	-0.09317648
35	0x3e59d1af	0.21271394
36	0x3d5f3522	0.05449403
37	0xbd8e80d0	-0.06958163
38	0x3c2a387c	0.0103894435
39	0xbe324231	-0.17408063
40	0xbd7b632b	-0.06137387
41	0xbe554394	-0.2082656
42	0xbe1b9a6a	-0.15195623
43	0x3e4dc899	0.20096053
44	0x3e3b8f01	0.1831627
45	0x3e2f624b	0.1712734
46	0xbd4e61ef	-0.050386366
47	0xbd2ea6ff	-0.04263973
48	0xbd364e99	-0.04450855
49	0x3e849a47	0.25898954
50	0xbd1a6f0e	-0.037703566
51	0x3d92902a	0.07156403
52	0x3e82d317	0.25551674
53	0xbdb06f7d	-0.08615015
54	0xbd0723ff	-0.032993313
55	0xbe329dd1	-0.17443015
56	0x3e18dbce	0.14927599
57	0x3e380dce	0.17974016
58	0xbcb189e4	-0.021672197
59	0xbd3949d1	-0.045236412
60	0xbdb6e07e	-0.08929537
61	0x3d9b5d1c	0.075861186
62	0x3de5b147	0.112154536
63	0xbc7f6d9e	-0.0155901
64	0xbe3199dc	-0.17343849
65	0x3dd03750	0.101668
66	0x3e4852f3	0.19562893
67	0x3dac7ff8	0.084228456
68	0x3e028b5a	0.12748471
69	0x3e0e3e1a	0.13890877
70	0x3e64a307	0.22327815
71	0x3e1976e2	0.14986756
72	0x3e565fbe	0.2093496
73	0xbd8306ba	-0.06397767
74	0x3de83758	0.11338681

layer1.2.bn2.weight f4 [5]
0	0x3f7e9249	0.99441963
1	0x3f7705b6	0.9649309
2	0x3f7b9c4b	0.9828536
3	0x3f7e0104	0.992203
4	0x3f81ea6a	1.0149662

layer1.2.bn2.bias f4 [5]
0	0x3d7007da	0.058601238
1	0x3b03590f	0.0020042097
2	0x3d4a2900	0.049355507
3	0x3d4894a7	0.04896989
4	0x3cba55aa	0.022745926

layer1.2.bn2.running_mean f4 [5]
0	0xbca0bb7c	-0.01962065
1	0xbdd5b755	-0.104353584
2	0xbd4b2924	-0.04959978
3	0x3e0df87b	0.13864319
4	0x3e95c596	0.2925231

layer1.2.bn2.running_var f4 [5]
0	0x3d8a0c86	0.0674067
1	0x3db05e74	0.086117655
2	0x3dabb47f	0.08384036
3	0x3dbedfd3	0.09320035
4	0x3e28a9c2	0.16471007

layer1.2.se.fc.0.weight f4 [1, 5]
0	0x3e83c770	0.25738096
1	0x3eaa5d11	0.3327413
2	0x3e17a7bb	0.14810078
3	0x3e884dd5	0.2662188
4	0x3e1e5bca	0.15464702

layer1.2.se.fc.2.weight f4 [5, 1]
0	0x3f3942f1	0.7236777
1	0xbf832479	-1.0245506
2	0x3f0c868a	0.5489279
3	0xbf346678	-0.70468855
4	0xbf54a8e1	-0.8307019

layer2.0.conv1.weight f4 [10, 5, 3]
0	0x3e0597bf	0.13046168
1	0xbe55e9d0	-0.20889974
2	0x3e12d2b8	0.14338195
3	0x3e6d0046	0.23144636
4	0x3da291dd	0.079379775
5	0x3c7cef34	0.01543789
6	0xbc85e998	-0.016346738
7	0xbe0bafca	-0.13641277
8	0x3df0110f	0.11722004
9	0x3e11fd57	0.14256798
10	0x3d404538	0.046941012
11	0xbde20e5a	-0.110378936
12	0x3d36889f	0.044563886
13	0xbd306d2b	-0.04307286
14	0xbd9ba369	-0.075995274
15	0xbe16ee4d	-0.14739342
16	0xbe87e8c5	-0.26544777
17	0xbd855ea0	-0.06512189
18	0xbdf77ee5	-0.1208475
19	0x3dd56cb9	0.10421128
20	0x3e2ec4d1	0.17067267
21	0x3dec8e27	0.11550551
22	0x3db09e95	0.08623997
23	0x3c2360af	0.009971782
24	0xbe03c54f	-0.12868236
25	0x3dab7336	0.08371584
26	0xbdd44ea5	-0.10366563
27	0x3e20a9d8	0.1568979
28	0x3e893546	0.26798457
29	0xbe009ea4	-0.12560517
30	0x3df826b0	0.12116754
31	0xbdde0c48	-0.10842186
32	0x3d7d9527	0.06190982
33	0x3d71e0a8	0.05905214
34	0xbd9210fd	-0.071321465
35	0x3c99d687	0.018779052
36	0x3e4a6348	0.19764435
37	0x3dc44dae	0.09585129
38	0x3e3dbe13	0.18529539
39	0xbd872248	-0.065983355
40	0x3e1a3343	0.15058617
41	0x3e699a74	0.22812825
42	0xbe0c4043	-0.13696389
43	0xbd0b8a4c	-0.034067437
44	0x3e7e087d	0.24807926
45	0x3e13e956	0.1444448
46	0xbe16cdbe	-0.14726922
47	0xbd6e8f87	-0.058242347
48	0x3e19e10f	0.1502726
49	0xbdf5e148	-0.120058596
50	0xbe3a8676	-0.18215355
51	0xbe0d2676	-0.13784203
52	0x3e7018ba	0.23446932
53	0x3dd4c25f	0.10388636
54	0x3d5475a0	0.05186999
55	0x3dd244e8	0.10267049
56	0xbe1d5fe5	-0.15368612
57	0x3cd8a283	0.02644468
58	0x3e7fd5a3	0.2498384
59	0x3e2f10cf	0.17096256
60	0xbddade9c	-0.106869906
61	0x3dc10567	0.094248585
62	0xbe561de4	-0.2090984
63	0x3db6a5f8	0.08918375
64	0xbb31b3e3	-0.0027115277
65	0x3e2eb65d	0.17061754
66	0xbda28f93	-0.07937541
67	0x3e8edaab	0.27901205
68	0x3e71698e	0.23575422
69	0x3e6bae44	0.23015696
70	0xbd8e4fa6	-0.069487855
71	0xbd686cc8	-0.056744367
72	0x3e63c7dd	0.2224421
73	0x3e481169	0.19537891
74	0x3d7d61e4	0.061860934
75	0xbe8e544f	-0.27798697
76	0xbd91e41d	-0.07123587
77	0xbe280c3a	-0.16410914
78	0xbe30d0e4	-0.17267185
79	0x3dc73663	0.0972717
80	0x3e3a7ff9	0.1821288
81	0x3e776100	0.24158096
82	0x3e5d562c	0.21614903
83	0xbc99f3a9	-0.018792944
84	0xbbe49702	-0.0069760093
85	0xbd425ea8	-0.047453552
86	0xbe02044c	-0.12696952
87	0x3d5a5300	0.05330181
88	0xbe2b2138	-0.1671189
89	0x3e1fc7e7	0.156036
90	0xbe4e9486	-0.20173845
91	0x3debe351	0.115179665
92	0xbe0111e9	-0.12604488
93	0xbcb0c5d6	-0.02157871
94	0xbe25663c	-0.1615228
95	0xbe16442f	-0.14674447
96	0xbd6bec85	-0.05759861
97	0x3e3dc1fa	0.18531027
98	0x3de65f00	0.112485886
99	0xbe53a1b5	-0.20667155
100	0xbe4aa997	-0.19791256
101	0x3c1e051f	0.009644776
102	0xbe2d233d	-0.16907974
103	0xbd017cae	-0.031613044
104	0x3e4fb3e3	0.20283465
105	0x3e07b1ff	0.13251494
106	0xbe4c5ac9	-0.19956507
107	0x3d3eb22d	0.04655664
108	0x3e41d692	0.18929508
109	0xbe0d97ba	-0.1382741
110	0x3d87e599	0.06635589
111	0xbe86cd74	-0.26328623
112	0xbd01c4e6	-0.031681918
113	0xbd95f5e1	-0.07322288
114	0x3e240cd8	0.16020525
115	0xbda48cb6	-0.08034651
116	0xbe36c43f	-0.178483
117	0xbe6e4fb2	-0.23272589
118	0x3e1aa18e	0.1510069
119	0x3e045397	0.12922512
120	0x3c2adeee	0.010429127
121	0x3d7f1ca6	0.06228318
122	0xbe456048	-0.1927501
123	0x3e28d5b9	0.16487779
124	0x3dba1fda	0.090881065
125	0x3dc435ef	0.095805995
126	0x3e6ddb7c	0.23228258
127	0xbce7d0ea	-0.02829786
128	0x3dab2b0e	0.083578214
129	0xbc5a9458	-0.013341032
130	0x3e779c59	0.24180736
131	0x3e81ef2e	0.25377792
132	0xbcee787b	-0.029110184
133	0x3e81e15c	0.25367248
134	0xbe73b120	-0.23798037
135	0x3d59cc79	0.053173516
136	0x3be96225	0.0071222954
137	0xbe4eb9fe	-0.20188138
138	0x3cd82371	0.026384087
139	0xbd54ad4f	-0.051923092
140	0x3d181a6e	0.03713458
141	0xbe321e7f	-0.17394446
142	0x3e45b262	0.19306329
143	0x3e96bb5f	0.29439828
144	0xbdd46ee9	-0.10372717
145	0x3e0f2e20	0.13982439
146	0xbd4fbe4a	-0.050718583
147	0x3dc6cd90	0.09707177
148	0xbdc5e7d0	-0.09663355
149	0xbdf577b6	-0.11985724

layer2.0.bn1.weight f4 [10]
0	0x3f80002a	1.000005
1	0x3f8329be	1.0247114
2	0x3f792f26	0.9733757
3	0x3f84f7d9	1.0388137
4	0x3f78dce7	0.9721207
5	0x3f7379dd	0.95107824
6	0x3f81f924	1.0154157
7	0x3f7594d7	0.95930237
8	0x3f811f58	1.008769
9	0x3f7fa4aa	0.9986063

layer2.0.bn1.bias f4 [10]
0	0x3d1c2fc8	0.038131505
1	0x3d1d2f58	0.03837523
2	0x3cec13c1	0.028818013
3	0x3d3ddaa6	0.046351098
4	0xbc975435	-0.01847277
5	0x3ad37f4c	0.001613596
6	0x3d16bf0a	0.036803283
7	0xbce665e3	-0.028124755
8	0xbd27882e	-0.040901355
9	0xbcb0f82a	-0.021602709

layer2.0.bn1.running_mean f4 [10]
0	0x3e1caa06	0.15299234
1	0x3e554849	0.20828356
2	0x3e69dfed	0.22839327
3	0x3e6b7a5c	0.22995895
4	0x3e943435	0.2894608
5	0xbe0275b6	-0.12740216
6	0xbe830bf1	-0.25595048
7	0x3d0cffec	0.034423754
8	0x3eef0c54	0.46689093
9	0x3d7d2d84	0.061810985

layer2.0.bn1.running_var f4 [10]
0	0x3d69fc54	0.057125404
1	0x3d9b8563	0.07593801
2	0x3d5f7e21	0.054563645
3	0x3e334eef	0.1751058
4	0x3df290dc	0.11844036
5	0x3da5e724	0.08100727
6	0x3d7511d1	0.059831444
7	0x3d72aaad	0.0592448
8	0x3d9618d7	0.073289566
9	0x3d6c1574	0.057637647

layer2.0.conv2.weight f4 [10, 10, 3]
0	0x3e418d55	0.1890157
1	0x3e052d86	0.13005647
2	0x3e06db47	0.13169585
3	0xbe345263	-0.17609553
4	0x3de82860	0.11335826
5	0xbe6f4929	-0.23367752
6	0xbddbbd2e	-0.107294425
7	0xbe0575d1	-0.13033225
8	0xbdd6e070	-0.10492027
9	0xbde4a252	-0.11163773
10	0xbda9f745	-0.08299116
11	0xbdc19586	-0.094523475
12	0xbd73f8a3	-0.05956329
13	0xbcdfe4ed	-0.02733084
14	0x3e1ef0ac	0.15521497
15	0x3d684e8a	0.056715526
16	0x3e18ade0	0.14910078
17	0xbd95965c	-0.073040694
18	0xbe18aada	-0.14908925
19	0xbc5ebab6	-0.01359432
20	0x3e0e7625	0.13912256
21	0x3d490346	0.049075387
22	0xbdcf9c1b	-0.10137197
23	0xbe015425	-0.12629755
24	0x3e1632b1	0.14667775
25	0x3d568a6b	0.0523781
26	0xbcff514e	-0.031166699
27	0x3dcb9709	0.09940917
28	0xbcd54c47	-0.026037348
29	0xbe18cd50	-0.1492207
30	0xbdabf4a6	-0.08396272
31	0x3d9b49cb	0.07582434
32	0xbd756884	-0.059914127
33	0x3cff3220	0.031151831
34	0xbc99c840	-0.018772244
35	0xbdc40fb6	-0.09573309
36	0xbdaef2d1	-0.08542407
37	0xbd6774ad	-0.056507755
38	0x3b69d1af	0.003567796
39	0xbd08fd7e	-0.033444874
40	0x3dcaea6f	0.09907996
41	0xbdd48365	-0.10376624
42	0xbda1a119	-0.07892055
43	0x3d1c4630	0.038152874
44	0x3d389b00	0.045069695
45	0x3e0aec8f	0.13566802
46	0x3dde946f	0.10868155
47	0x3d999070	0.074982524
48	0x3c76d176	0.015064588
49	0x3e12e40b	0.14344804
50	0x3e0a0d7e	0.1348171
51	0x3e247b99	0.16062774
52	0x3dd04f32	0.10171355
53	0x3cc3ee70	0.023917407
54	0x3e0937f2	0.13400248
55	0xbdeb139b	-0.11478349
56	0xbd843357	-0.06455105
57	0x3d8205ea	0.06348784
58	0x3d823b81	0.06359006
59	0xbe292281	-0.16517068
60	0x3c220c97	0.009890697
61	0xbe1d8a19	-0.15384711
62	0xbde8072b	-0.11329492
63	0xbdc6c3af	-0.097052924
64	0xbdfaecb7	-0.12252181
65	0xbdb49754	-0.08817926
66	0x3deb83c5	0.114997424
67	0x3e3458f3	0.17612056
68	0x3e111696	0.14168772
69	0x3de270ee	0.11056696
70	0xbd98afb1	-0.074553855
71	0xbd179cca	-0.03701476
72	0x3cf020b5	0.02931247
73	0x3e3a03c6	0.18165502
74	0x3d42d06b	0.047562044
75	0x3e1dc6ba	0.1540784
76	0xbdfa344b	-0.12217005
77	0x3d3e19ca	0.046411313
78	0xbcb435dd	-0.02199834
79	0xbda362b7	-0.07977813
80	0x3a96387b	0.0011460924
81	0x3d17c8c1	0.03705669
82	0xbd23c7a8	-0.03998533
83	0xbde3b218	-0.11117953
84	0x3e0102dc	0.12598747
85	0xbd54fc53	-0.051998448
86	0x3e401fa8	0.18762076
87	0x3e1d07ac	0.15334958
88	0xbe2eaf31	-0.17059018
89	0xbd322065	-0.043487925
90	0x3c550c11	0.013003365
91	0xbcf3c7be	-0.02975833
92	0xbd3552df	-0.044268485
93	0xbe075f07	-0.13219844
94	0xbe0b95db	-0.13631384
95	0x3d31f294	0.04344423
96	0xbcf22bde	-0.029561933
97	0xbd3fd419	-0.04683313
98	0x3db82472	0.089913264
99	0x3c9b1669	0.018931584
100	0xbe1bcf2c	-0.15215749
101	0x3d074bd8	0.033031315
102	0x3d60520b	0.054765742
103	0x3c83d1eb	0.016091308
104	0x3e136961	0.14395668
105	0x3c7d10c0	0.015445888
106	0xbe183de6	-0.14867362
107	0x3d0ad50c	0.033894584
108	0xbb9a510a	-0.0047093676
109	0x3d82d0f3	0.0638751
110	0xbd14aec0	-0.036299467
111	0x3d60cbbd	0.0548818
112	0xbbb287b5	-0.0054483064
113	0x3d6dfb14	0.058100775
114	0x3e422609	0.18959822
115	0x3de18e72	0.110134974
116	0x3e1b24c0	0.15150738
117	0xbdb6f088	-0.089325964
118	0x3e2ad001	0.1668091
119	0xbd356536	-0.044285975
120	0x3d958485	0.07300667
121	0xbdb52c09	-0.0884629
122	0xbde15aa8	-0.110036194
123	0xbd9c3207	-0.076267295
124	0xbe40040b	-0.18751542
125	0xbe0ae9fe	-0.13565823
126	0xbdfb3722	-0.12266375
127	0x3e263fb1	0.16235234
128	0xbd96a912	-0.07356466
129	0xbd937f3c	-0.072020024
130	0xbe1ae11a	-0.15124932
131	0x3d92d29c	0.07169077
132	0x3cde7248	0.027154103
133	0xbe2ecb72	-0.17069796
134	0x3d071495	0.032978613
135	0xbdf6f9eb	-0.12059387
136	0xba613672	-0.0008591182
137	0xbc6cc21e	-0.014450578
138	0xbde0432c	-0.10950312
139	0xbe0f512e	-0.13995811
140	0xbe4bcbf0	-0.19902015
141	0x3a8fa5dd	0.0010959465
142	0x3dc71703	0.09721186
143	0x3df2ebf3	0.1186141
144	0xbd6f6ff7	-0.058456387
145	0xbe07a9ce	-0.13248369
146	0x3e21236e	0.15736172
147	0xbd4206c2	-0.047369726
148	0xbe7cddae	-0.24693939
149	0x3c893452	0.016748581
150	0x3cf0cc85	0.029394398
151	0xbd495f6c	-0.049163267
152	0xbd0c40dc	-0.034241542
153	0xbde97bf4	-0.11400595
154	0x3dee5270	0.116368175
155	0x3d5d0979	0.053964112
156	0xbe39ea67	-0.18155824
157	0xbca7c0ef	-0.02047774
158	0xb9fc6425	-0.000481398
159	0xbdd23353	-0.102636956
160	0xbe52ce5b	-0.20586531
161	0xbe3b6df3	-0.18303661
162	0x3dbfbb75	0.093619265
163	0x3cd99141	0.02655852
164	0xbd7ecaee	-0.062205248
165	0xbdaae109	-0.08343703
166	0x3d6f5e41	0.058439497
167	0x3cadcf33	0.021216964
168	0x3d05cd30	0.032666385
169	0xbd95826c	-0.073002666
170	0x3df99c06	0.12187962
171	0xbd3f8302	-0.0467558
172	0x3d6e2e6a	0.058149733
173	0xbdc83f0a	-0.09777649
174	0xbd2f4081	-0.042786125
175	0xbe1eef71	-0.15521027
176	0x3da17bbd	0.07884929
177	0xbcd8ae7e	-0.026450392
178	0xbdc4f1e2	-0.09616448
179	0xbd34a31c	-0.044100866
180	0xbd796294	-0.060885027
181	0xbd555bbe	-0.052089445
182	0xbd22277f	-0.039588448
183	0x3caac6bb	0.020846715
184	0x3dc5b580	0.09653759
185	0x3e3bb10c	0.18329257
186	0x3d6bdecf	0.057585534
187	0x3e05766f	0.1303346
188	0xbd0a760b	-0.03380398
189	0x3d996174	0.07489291
190	0xbc86a334	-0.016435243
191	0x3d8e40e5	0.069459714
192	0x3c24140c	0.010014545
193	0x3e0572a0	0.13032007
194	0x3e3835b9	0.17989244
195	0x3c930250	0.017945439
196	0x3c67bad5	0.014143665
197	0x3bbdc88e	0.0057917302
198	0x3e4e6d15	0.20158799
199	0x3d910b57	0.07082241
200	0x3e11df08	0.14245236
201	0x39b39465	0.00034252103
202	0x3d6e6c93	0.058209013
203	0x3e199d9e	0.15001532
204	0x3d88837b	0.06665703
205	0xbde3af1e	-0.11117385
206	0x3d3aeda2	0.04563678
207	0xbd2f27b3	-0.04276247
208	0x3e032244	0.1280604
209	0xbe357623	-0.17720847
210	0x3d146a52	0.036234207
211	0xbc066436	-0.008202603
212	0xbdda9d53	-0.106745385
213	0x3dcebb2a	0.100942925
214	0x3d8f3b39	0.06993718
215	0x3e223ec0	0.1584425
216	0xbdfd9cb7	-0.123834066
217	0x3d658c8c	0.05604224
218	0x3d8df91b	0.06932279
219	0xbe0adb59	-0.13560237
220	0x3dc6e751	0.09712089
221	0x3e094a2c	0.134072
222	0x3c41021e	0.01178029
223	0xbb7e33d5	-0.0038788219
224	0xbdf72504	-0.12067607
225	0xbdc620a6	-0.09674196
226	0xbd481b71	-0.048854295
227	0x3d1436cf	0.036185082
228	0x3c96ed59	0.018423723
229	0x3e193584	0.14961821
230	0xbc03aec0	-0.008037269
231	0x3dc84051	0.097778924
232	0xbd346e2a	-0.044050373
233	0xbd888905	-0.066667594
234	0x3e0e7220	0.13910723
235	0xbd7ee184	-0.062226787
236	0xbdcb6ef0	-0.09933269
237	0xbcfd4753	-0.0309178
238	0x3dc1afec	0.094573826
239	0xbd08540e	-0.033283286
240	0x3d6cbcd0	0.057797253
241	0xbe33f83e	-0.17575166
242	0x3d816a61	0.06319118
243	0xbe0e77ca	-0.13912883
244	0x3d39b905	0.045342464
245	0xbe0a314b	-0.13495366
246	0x3d021a1b	0.031763177
247	0xbd1cec69	-0.038311396
248	0xbe3b0da5	-0.18266924
249	0x3e008571	0.12550904
250	0x3dee5e09	0.116390295
251	0xbdf6a7f6	-0.12043755
252	0xbe5f3333	-0.21796875
253	0x3ddcbf9f	0.10778736
254	0x3d32ae7e	0.04362344
255	0xbdd193b8	-0.10233253

layer2.0.bn2.weight f4 [10]
0	0x3f7aecf2	0.980178
1	0x3f806dd9	1.0033523
2	0x3f7b8769	0.98253495
3	0x3f7f11cb	0.99636525
4	0x3f7c49a9	0.98549896
5	0x3f78c26e	0.97171676
6	0x3f7e65d1	0.9937411
7	0x3f81d3c5	1.0142752
8	0x3f7d07b2	0.9883987
9	0x3f79be0e	0.97555625

layer2.0.bn2.bias f4 [10]
0	0x3d3d6027	0.046234276
1	0x3d046abd	0.032328356
2	0xbca1fe6e	-0.019774642
3	0x3d19333a	0.03740237
4	0x3c9f14e3	0.01941914
5	0x3d3649ff	0.044504162
6	0xbba203e7	-0.004944313
7	0x3c9e925a	0.019356895
8	0x3cf8dc88	0.030378595
9	0x3d07768b	0.033072036

layer2.0.bn2.running_mean f4 [10]
0	0xbdabed89	-0.083949156
1	0x3dc07b81	0.093985565
2	0x3cf24a18	0.029576346
3	0x3d5aac58	0.053387016
4	0xbea6af6f	-0.3255572
5	0xbe70ac8c	-0.23503321
6	0x3e8a65dc	0.27030838
7	0x3d8a10e4	0.06741503
8	0xbd966f7b	-0.07345482
9	0x3e1b7d3e	0.15184495

layer2.0.bn2.running_var f4 [10]
0	0x3ecbbeba	0.3979395
1	0x3dd98267	0.106205754
2	0x3e061607	0.1309434
3	0x3dd6fd55	0.10497538
4	0x3ec4a666	0.38408202
5	0x3e110c0c	0.14164752
6	0x3e7da15a	0.24768582
7	0x3dbc3a79	0.0919084
8	0x3e3c97d6	0.18417296
9	0x3e25ac89	0.16179098

layer2.0.se.fc.0.weight f4 [2, 10]
0	0x3e5a8240	0.21338749
1	0xbdfe1413	-0.124061726
2	0x3d4cd37b	0.05000637
3	0x3c6ff1ce	0.014645053
4	0x3d7519cb	0.05983905
5	0xbdd4c8c4	-0.103898555
6	0xbe712010	-0.23547387
7	0x3e8e37e8	0.27777028
8	0x3e458033	0.19287185
9	0xbe30e180	-0.17273521
10	0x3e3055db	0.17220251
11	0x3d98b3ca	0.07456167
12	0xbd2b5b31	-0.041835014
13	0xbe565ec6	-0.2093459
14	0x3b948b35	0.0045331963
15	0x3da2e023	0.07952907
16	0x3e9aff26	0.30272788
17	0xbdbb1819	-0.09135456
18	0xbe4c39ce	-0.19943926
19	0xbd69b4ed	-0.05705731

layer2.0.se.fc.2.weight f4 [10, 2]
0	0xbf2f2fec	-0.684325
1	0x3e2b1f2c	0.1671111
2	0x3ed2e3d2	0.41189438
3	0xbee8338b	-0.45351824
4	0xbf2a6c3a	-0.6657139
5	0xbeee65e9	-0.46562126
6	0xbe359441	-0.17732336
7	0x3f0fdce2	0.56196415
8	0x3e386944	0.18008906
9	0xbebcde03	-0.36888131
10	0x3e810057	0.25195572
11	0x3e91c0d1	0.2846742
12	0x3dd4b025	0.103851594
13	0x3c996e87	0.018729461
14	0xbf14c2bf	-0.5810966
15	0xbdd13205	-0.102146186
16	0xbefe7f12	-0.49706322
17	0xbeb58d70	-0.3545947
18	0xbe8b04e3	-0.27152166
19	0xbe64bce7	-0.22337686

layer2.0.shortcut.0.weight f4 [10, 5, 1]
0	0xbe828760	-0.25493908
1	0xbe9778fb	-0.29584488
2	0xbd88456b	-0.066538654
3	0xbec2f298	-0.3807571
4	0xbe243d3d	-0.16038986
5	0x3d1fbbef	0.038997587
6	0x3d1cff27	0.03832927
7	0x3e5eb3ec	0.21748322
8	0x3dbe214a	0.09283693
9	0x3d1239e6	0.035699748
10	0x3dbf8f1b	0.09353467
11	0xbd8cf549	-0.06882722
12	0xbed11f70	-0.40844297
13	0x3ec18f7d	0.37804785
14	0xbe2b3453	-0.16719179
15	0x3dc27726	0.09495382
16	0xbecf9d62	-0.4054976
17	0x3eb17abd	0.34663954
18	0x3ec503ab	0.3847936
19	0x3b29df2c	0.0025920374
20	0x3ea12fd3	0.314818
21	0x3dae351f	0.08506226
22	0xbe5f4c4e	-0.21806452
23	0xbd7a95cf	-0.061178025
24	0x3e2bf5f6	0.16793045
25	0x3e0abc2e	0.13548347
26	0x3e871f00	0.2639084
27	0xbea47e57	-0.3212764
28	0xbd94be72	-0.07262887
29	0xbe26641f	-0.1624913
30	0x3e8dc8bc	0.2769221
31	0x3e0ec702	0.13943103
32	0x3e49e41c	0.19715923
33	0x3d17b86c	0.037041113
34	0xbdbf409b	-0.093384944
35	0x3e5bc49a	0.21461716
36	0x3ea57a48	0.32319856
37	0x3da4ce08	0.0804711
38	0x3edc4721	0.43023017
39	0xbeb09c5a	-0.34494287
40	0x3e81f3b7	0.25381252
41	0xbe8a85a3	-0.27055082
42	0x3d87d6fd	0.06632803
43	0x3e97e115	0.2966391
44	0x3e1a46f5	0.1506613
45	0xbeac013f	-0.335947
46	0x3e54ebb8	0.20793045
47	0x3ea8c54e	0.32963032
48	0x3ec6a18a	0.3879512
49	0x3e30a1ca	0.17249218

layer2.0.shortcut.1.weight f4 [10]
0	0x3f836219	1.0264312
1	0x3f7a5fdb	0.97802514
2	0x3f7d1ee6	0.9887527
3	0x3f811f41	1.0087663
4	0x3f80bbaa	1.005727
5	0x3f858fde	1.043453
6	0x3f7a7e57	0.9784903
7	0x3f7c3e4e	0.9853257
8	0x3f81f597	1.0153073
9	0x3f8359fa	1.0261834

layer2.0.shortcut.1.bias f4 [10]
0	0x3d33490f	0.043770846
1	0x3d0350e6	0.032059573
2	0xbcaac209	-0.020844476
3	0x3d13fbc5	0.036128778
4	0x3c89d97d	0.01682734
5	0x3d37b271	0.04484791
6	0xbbd53594	-0.006506631
7	0x3c4167f0	0.011804566
8	0x3ce92d7e	0.028464075
9	0x3d102f2a	0.03520123

layer2.0.shortcut.1.running_mean f4 [10]
0	0xbefd69d7	-0.49494812
1	0x3e1487e0	0.14504957
2	0x3c0fc58d	0.008775127
3	0x3e4bd448	0.19905198
4	0x3e213496	0.15742716
5	0xbdd8d556	-0.105875656
6	0x3df905e0	0.12159324
7	0x3e2b3ec0	0.16723156
8	0x3e8fe68b	0.28105578
9	0x3eb79c30	0.3586135

layer2.0.shortcut.1.running_var f4 [10]
0	0x3dbc92ec	0.092077106
1	0x3c92de50	0.017928272
2	0x3dc524eb	0.09626182
3	0x3e350315	0.17676957
4	0x3d8ba3bd	0.0681834
5	0x3dfd056f	0.12354552
6	0x3d35e016	0.044403158
7	0x3dc33deb	0.09533294
8	0x3e09a03f	0.13440035
9	0x3e08a80f	0.1334536

layer2.1.conv1.weight f4 [10, 10, 3]
0	0x3d756164	0.059907332
1	0xbe478f56	-0.19488272
2	0x3e19a1d9	0.15003146
3	0x3d13f15d	0.036118854
4	0xbe01204a	-0.12609974
5	0xbbcef914	-0.0063163135
6	0xbe442412	-0.19154385
7	0xbe24ab6f	-0.16081022
8	0xbd267258	-0.04063639
9	0xbd250283	-0.0402856
10	0x3df8e215	0.12152497
11	0x3e1f7a39	0.15573968
12	0x3da79058	0.08181828
13	0x3d1dc4e6	0.038517855
14	0x3d9306d8	0.0717904
15	0xbe1c83a9	-0.152846
16	0x3e352bb7	0.17692457
17	0x3decc704	0.11561397
18	0xbda12089	-0.07867534
19	0x3dad9ab9	0.08476777
20	0xb9fab12b	-0.00047815716
21	0xbd90ea2d	-0.070759155
22	0xba2f13ec	-0.0006678689
23	0xbe356c18	-0.17717016
24	0xbc03848d	-0.008027208
25	0xbe1323cb	-0.14369123
26	0x3c8669a4	0.016407795
27	0x3e0b38b7	0.13595854
28	0x3e15fe29	0.14647736
29	0xbd920a6f	-0.07130896
30	0xbe0163f2	-0.12635782
31	0xbc15b0eb	-0.009136419
32	0x3c8beca2	0.017080609
33	0x3d82d243	0.063877605
34	0xbda46c70	-0.08028495
35	0xbe5a1191	-0.21295764
36	0x3df9a340	0.121893406
37	0xbe26261c	-0.16225475
38	0x3e03ed5b	0.12883513
39	0x3e28fdfe	0.1650314
40	0xbd622ad0	-0.05521661
41	0xbdd24135	-0.102663435
42	0xbe1c680e	-0.15274069
43	0xbe0f9c5b	-0.14024489
44	0x3e0b6ee3	0.13616519
45	0x3c272b00	0.010203123
46	0x3dd46d38	0.10372394
47	0x3d269f90	0.040679514
48	0x3da5b0e7	0.08090382
49	0x3e1eaaa4	0.15494782
50	0x3e3fd758	0.18734491
51	0xbd74bbd2	-0.059749432
52	0xbe2eecb6	-0.17082486
53	0x3e2ee1cd	0.17078324
54	0xbcdcee58	-0.02696912
55	0xbdb83a4a	-0.08995493
56	0x3d8132e7	0.06308537
57	0xbda4c26c	-0.080448955
58	0x3c66af0a	0.0140798185
59	0xbd689185	-0.056779403
60	0x3dd0909f	0.10183834
61	0xbe17c37f	-0.1482067
62	0xbd6de658	-0.058081
63	0x3d1500b1	0.036377613
64	0x3e096c76	0.13420281
65	0xbdd5c485	-0.10437874
66	0xbdf4870a	-0.11939819
67	0x3d8406f8	0.06446642
68	0x3dfb5fcf	0.122741334
69	0x3cefbe58	0.029265568
70	0x3d8566bf	0.06513738
71	0x3c12f2e4	0.008969042
72	0xbdd52aa4	-0.10408524
73	0x3d55ffe9	0.052246008
74	0xbd6165c7	-0.055028703
75	0xbd8a21ec	-0.06744751
76	0xbd9eaba1	-0.07747579
77	0x3dca5ba7	0.098807625
78	0xbe18d221	-0.14923908
79	0x3d80caca	0.06288679
80	0x3e0d0bd1	0.13774039
81	0x3d884e54	0.06655565
82	0xbcf6fb51	-0.030149134
83	0x3d47cb80	0.048778057
84	0x3e49e234	0.19715196
85	0x3dc5aafd	0.09651754
86	0xbc0f8a4b	-0.008760999
87	0x3e365097	0.1780418
88	0x3d51965a	0.051168777
89	0x3dcd1674	0.10014048
90	0x3de72c43	0.11287739
91	0x3d8b6b41	0.068075664
92	0xbd56cdaf	-0.05244225
93	0xbdfd9ad7	-0.12383049
94	0x3cece6f0	0.028918713
95	0x3dbe2656	0.09284656
96	0xbdb0a6ec	-0.08625588
97	0xbe14521d	-0.14484449
98	0x3df44782	0.119277015
99	0xbd3e8dd4	-0.046521977
100	0xbdbe273b	-0.09284826
101	0xbc24b07e	-0.010051845
102	0xbc433edd	-0.011916843
103	0xbe0695d6	-0.13143095
104	0x3d0aefad	0.03391998
105	0x3d553912	0.05205638
106	0x3e2eb9f9	0.1706313
107	0x3db61912	0.088915005
108	0x3c8da502	0.017290596
109	0x3e095155	0.13409932
110	0xbd9a4ca5	-0.0753415
111	0x3d97ca9c	0.074116915
112	0xbda6c8bc	-0.08143756
113	0xbc6a4878	-0.014299504
114	0x3d890158	0.066897094
115	0xbe19eeef	-0.15032552
116	0xbafdc658	-0.0019361479
117	0xbd98078a	-0.07423313
118	0xbd939dc2	-0.07207824
119	0xbe10b6a4	-0.14132172
120	0xbe1291e8	-0.14313471
121	0x3c9dbcc1	0.019255044
122	0x3d2972d4	0.041369274
123	0x3d98a34a	0.0745302
124	0xbdfa2288	-0.122136176
125	0x3e21eb40	0.15812397
126	0x3de8a52e	0.113596305
127	0xbdab5435	-0.083656706
128	0x3c91a510	0.017778903
129	0x3cca0d21	0.024664463
130	0xbe3f9865	-0.18710478
131	0x3baad342	0.005213172
132	0x3e25f37b	0.16206162
133	0xbe0a7c0e	-0.13523886
134	0x3e0d9187	0.13825046
135	0x3e0ca361	0.13734199
136	0x3e38131f	0.17976044
137	0x3e62b213	0.22138242
138	0x3b00c3f0	0.0019648038
139	0xbdcb0820	-0.09913659
140	0x3e31d138	0.17364967
141	0x3cad2686	0.021136533
142	0xbbbfc463	-0.0058522685
143	0x3d991f87	0.074767165
144	0xbc605665	-0.013692473
145	0xbdb4b0fd	-0.0882282
146	0xbe197e91	-0.14989688
147	0xbd424056	-0.047424637
148	0x3df38f5d	0.11892579
149	0xbd72c101	-0.059266094
150	0x3dd8d83d	0.10588119
151	0xbe164866	-0.14676055
152	0xbe599742	-0.21249107
153	0x3df6f9e0	0.120593786
154	0x3d8bc0ae	0.0682386
155	0x3b8e5130	0.0043431744
156	0x3df70a42	0.120625034
157	0xbe328e27	-0.1743704
158	0xb94fb933	-0.0001981005
159	0x3c7562be	0.014977155
160	0x3c55d744	0.013051812
161	0xbe18263c	-0.14858335
162	0x3c94e454	0.018175282
163	0x3bcde111	0.0062829335
164	0x3dd45a67	0.103688054
165	0x3e05858a	0.13039222
166	0x3dab2f52	0.08358635
167	0x3dcd0e0c	0.10012445
168	0x3bbde993	0.0057956665
169	0xbe17fd04	-0.14842612
170	0xbd1857c4	-0.037193075
171	0x3df4ddc0	0.11956358
172	0x3d059ad0	0.032618344
173	0x3e051725	0.1299711
174	0xbe01dd11	-0.12681986
175	0xbde8ba1c	-0.113636225
176	0x3c7140c8	0.014724918
177	0xbd017339	-0.031604026
178	0x3c59470f	0.013261571
179	0xbe0ad61f	-0.13558243
180	0xbe0e4070	-0.13891768
181	0xbd677704	-0.056509987
182	0xbd51da81	-0.051233772
183	0xbe23b31d	-0.15986295
184	0xbcbf90fb	-0.023384562
185	0xbe18dabc	-0.1492719
186	0xbd8da4ce	-0.069161996
187	0x3e07b4e9	0.13252605
188	0x3e46273b	0.19350903
189	0xbe075e22	-0.13219503
190	0x3cb8aad3	0.022542393
191	0xbd760836	-0.060066424
192	0x3d2bc7d1	0.041938607
193	0xbd6173ca	-0.055042066
194	0x3d23758e	0.03990703
195	0xbd98423c	-0.07434508
196	0x3d62043d	0.055179823
197	0x3e022751	0.1271031
198	0x3dc89720	0.0979445
199	0xbe166473	-0.14686756
200	0x3da5955b	0.08085128
201	0x3da15212	0.07876982
202	0xbddf9d68	-0.10918695
203	0x3cc8811a	0.024475623
204	0x3dd8a730	0.105787635
205	0x3e0bb9da	0.13645115
206	0xbd806a54	-0.062702805
207	0xbc07d5bc	-0.008290704
208	0xbe444f50	-0.1917088
209	0x3ce54336	0.02798615
210	0xbe48fc0e	-0.19627401
211	0x3ce366b1	0.027758928
212	0xbd504674	-0.05084844
213	0xbe06d81b	-0.13168375
214	0xbe17f3e1	-0.14839126
215	0xbce7b0a9	-0.02828248
216	0xbde4887e	-0.11158846
217	0x3d9aa1df	0.07550406
218	0xbd974426	-0.07386045
219	0xbc03c227	-0.008041895
220	0x3d2bbad9	0.04192624
221	0xbd48f9be	-0.049066298
222	0xbe173931	-0.1476791
223	0xbd71183a	-0.058860995
224	0x3e209833	0.1568306
225	0x3df1e884	0.11811927
226	0xbdc0f1ad	-0.09421096
227	0x3cdbc159	0.026825594
228	0x3d0c1b9e	0.034206025
229	0xbdbce852	-0.09223999
230	0xbe00aac3	-0.1256514
231	0x3e323ecf	0.17406772
232	0xbe274e15	-0.1633838
233	0xbe05b15a	-0.13055936
234	0x3da8cbfe	0.082420334
235	0xbe51c63d	-0.20485778
236	0x3e2fe093	0.17175512
237	0xbbb0e54a	-0.005398427
238	0x3dee950c	0.11649522
239	0xbde55c8a	-0.11199291
240	0x3d2683da	0.040653087
241	0x3e1a71b5	0.15082438
242	0x3e223155	0.15839131
243	0xbe1c3de5	-0.15257986
244	0x3e091a6d	0.13388987
245	0x3ce2650b	0.027636072
246	0x3df43f4b	0.11926135
247	0xbd0b07e3	-0.03394307
248	0xbd16107b	-0.03663681
249	0x3d7b9be1	0.061427955
250	0xbdcb92ac	-0.09940085
251	0xbe222a80	-0.15836525
252	0x3d4ff5b5	0.050771434
253	0xbe31e771	-0.17373444
254	0xbdd5d073	-0.10440149
255	0xbbf7df6e	-0.0075644767

layer2.1.bn1.weight f4 [10]
0	0x3f84f0d1	1.0385991
1	0x3f7ba16c	0.98293185
2	0x3f7c1cd6	0.984815
3	0x3f779558	0.96712255
4	0x3f824645	1.0177695
5	0x3f81b222	1.0132487
6	0x3f7b8b26	0.982592
7	0x3f74aa47	0.9557232
8	0x3f7b806a	0.9824282
9	0x3f833e8f	1.0253466

layer2.1.bn1.bias f4 [10]
0	0x3c876e58	0.016532108
1	0x3bdc0737	0.0067147273
2	0x3cc1d42e	0.023660745
3	0xbcba0289	-0.022706287
4	0x3d01f504	0.031727806
5	0x3c682b30	0.014170453
6	0xbc2ab1e0	-0.010418385
7	0x3d06cd38	0.032910556
8	0xbccd1ddc	-0.025038652
9	0x3d2ab2e5	0.041674513

layer2.1.bn1.running_mean f4 [10]
0	0x3d7b291c	0.0613185
1	0xbc77b229	-0.01511816
2	0x3e50cd5b	0.20390837
3	0xbd2ed63e	-0.042684786
4	0x3e1ad5ca	0.15120617
5	0xbaa6192a	-0.0012672294
6	0xbd21d852	-0.03951294
7	0xbe25e171	-0.1619928
8	0x3bc10d75	0.005891497
9	0x3e8d3dc4	0.27586186

layer2.1.bn1.running_var f4 [10]
0	0x3d8c5f50	0.06854117
1	0x3e49b288	0.1969701
2	0x3e9de303	0.3083726
3	0x3e80f109	0.25183895
4	0x3ecdf052	0.40222412
5	0x3e54a4a6	0.20765933
6	0x3e4f66c3	0.20254044
7	0x3e54f033	0.20794754
8	0x3e6f6ba3	0.23380904
9	0x3e35bc66	0.1774765

layer2.1.conv2.weight f4 [10, 10, 3]
0	0xbdde7a5b	-0.10863181
1	0x3d99f0ac	0.07516608
2	0x3e1f9081	0.15582468
3	0x3c821b56	0.015882175
4	0x3e016b56	0.12638602
5	0x3d155c9d	0.036465276
6	0x3dfc2018	0.12310809
7	0xbe2eee90	-0.17083192
8	0xbe01dc94	-0.126818
9	0x3d9b422a	0.07580979
10	0x3c38348a	0.011242995
11	0xbe056cdc	-0.13029808
12	0xbd0a2dd6	-0.03373512
13	0x3cfed9fd	0.031109804
14	0xbdc83173	-0.09775057
15	0x3d377307	0.044787433
16	0xbdcf9137	-0.101351194
17	0xbd97569f	-0.073895685
18	0x3d21420f	0.03936964
19	0x3d094e11	0.033521716
20	0x3d5971bc	0.05308698
21	0xbe2bfe0a	-0.16796127
22	0x3df36c7b	0.118859254
23	0xbd7412c5	-0.059588213
24	0xbdef8bcd	-0.11696587
25	0xbd8487c7	-0.0647121
26	0xbc21f252	-0.009884434
27	0x3e2c0a96	0.16800913
28	0xbddf185a	-0.108933166
29	0xbe0b76ff	-0.13619612
30	0x3e24bc8e	0.16087553
31	0xbd2ea5d2	-0.042638607
32	0xbe17601d	-0.14782758
33	0x3e0113c5	0.12605198
34	0xbd81b460	-0.06333232
35	0x3cf86583	0.030321842
36	0x3da40d9e	0.0801041
37	0xbbbcc1a6	-0.0057603894
38	0x3e178ea9	0.14800514
39	0x3e0f3226	0.13983974
40	0x3ccfde5c	0.025374584
41	0x3ca7e387	0.020494236
42	0x3d1e52a6	0.03865304
43	0x3d54edff	0.051984783
44	0xbe114bed	-0.1418912
45	0xbd674a3a	-0.056467272
46	0xbe231b2e	-0.15928337
47	0xbe0ba87e	-0.13638493
48	0x3d8c6813	0.06855788
49	0xbdc49f45	-0.09600691
50	0x3d851988	0.0649901
51	0xbddd5fc9	-0.10809285
52	0xbe232439	-0.15931787
53	0x3d853be2	0.06505562
54	0x3e174479	0.14772214
55	0x3dd9e435	0.1063923
56	0x3dc13a8b	0.09434994
57	0x3caf25ef	0.021380393
58	0xbd8bc2a4	-0.06824234
59	0xbe2af2a8	-0.16694129
60	0x3d2cfe36	0.042234622
61	0x3d15bcd3	0.03655703
62	0x3e003c8f	0.12523101
63	0x3d63335c	0.055468902
64	0x3e163eb5	0.14672358
65	0x3de6d7cf	0.11271631
66	0x3df0f703	0.11765864
67	0x3d6bc061	0.057556514
68	0x3c1ba2d9	0.009499275
69	0xbdf9d7b0	-0.12199342
70	0x3d5990ec	0.053116724
71	0x3d91ae24	0.07113293
72	0xbe26d3eb	-0.16291778
73	0xbdf9aff3	-0.12191763
74	0x3cd80123	0.02636773
75	0x3de292a3	0.11063125
76	0x3db24669	0.08704836
77	0xbd4eef62	-0.050521262
78	0xbe54bf68	-0.2077614
79	0xbd44517d	-0.047929276
80	0x3cb7ba35	0.022427658
81	0xbe06632e	-0.13123772
82	0xbe0b11af	-0.13580965
83	0x3d600a77	0.05469748
84	0x3cd953ce	0.026529219
85	0x3e3d8286	0.18506822
86	0x3e089205	0.13336952
87	0xbcf5593b	-0.029949775
88	0xbcb7a605	-0.022418031
89	0xbc18a7f1	-0.009317384
90	0xbe63109f	-0.22174309
91	0xbe35ccba	-0.17753878
92	0x3dc4413b	0.09582754
93	0xbde3a98c	-0.11116323
94	0x3d6c4c99	0.057690237
95	0x3d96daa8	0.07365924
96	0xbe0d0bf8	-0.13774097
97	0x3d8906d6	0.06690757
98	0x3e1a56c7	0.15072165
99	0xbcbd50c0	-0.023109794
100	0x3dc7a2ae	0.097478256
101	0xbd25fff2	-0.04052729
102	0xbe148996	-0.1450561
103	0x3df3e4d3	0.11908879
104	0x3b21eeef	0.0024709066
105	0x3cef0d84	0.02918125
106	0xbd99ec04	-0.075157195
107	0xbdeffe8e	-0.11718474
108	0xbe184b3a	-0.14872447
109	0x3d98f6b7	0.07468932
110	0x3dea957d	0.11454294
111	0xbe2f3959	-0.1711172
112	0x3e23a08c	0.15979213
113	0x3c9e2ff7	0.01930998
114	0x3df32ffc	0.11874387
115	0x3c37c080	0.011215329
116	0x3de717fb	0.11283871
117	0xbe25c475	-0.16188224
118	0x3da9d8fa	0.08293338
119	0x3e39d919	0.18149222
120	0x3df74c04	0.12075046
121	0xbe1e997d	-0.15488239
122	0x3d6de823	0.05808271
123	0x3d3f2141	0.046662573
124	0x3e1032d2	0.14081886
125	0x3df14ad3	0.1178185
126	0xbdcb1ded	-0.09917817
127	0xbe1c740a	-0.1527864
128	0x3bc80204	0.006103756
129	0xbe1abcec	-0.1511113
130	0x3c642310	0.013924375
131	0x3c22bb04	0.009932283
132	0xbb2ab86d	-0.0026049868
133	0x3ad4e476	0.0016242403
134	0xbcff5d6f	-0.031172482
135	0xbdd9a9de	-0.10628103
136	0x3d822e96	0.06356542
137	0x3e0ffa40	0.14060307
138	0x3cba25bf	0.022723077
139	0x3c714d63	0.014727923
140	0xbdcb3b1c	-0.099233836
141	0xbcdb6ad1	-0.026784332
142	0xbd1b6cc9	-0.037945542
143	0x3d1b2341	0.037875418
144	0xbdc34e04	-0.09536365
145	0xbc38bd4a	-0.011275599
146	0x3d8cb559	0.06870527
147	0x3e15d007	0.14630137
148	0xbe319899	-0.17343368
149	0x3d434d64	0.047681227
150	0x3cf49c37	0.029859645
151	0xbbceb224	-0.006307857
152	0xbdf020f6	-0.11725037
153	0xbd1829e6	-0.037149332
154	0xbdbd8d50	-0.09255469
155	0xbd5018b1	-0.050804798
156	0xbd456fed	-0.048202444
157	0x3e314dc4	0.17314821
158	0xbcb321aa	-0.021866638
159	0x3e3b9c72	0.18321398
160	0xbe325c1e	-0.17417952
161	0x3e11f404	0.14253241
162	0xbdf4f2a5	-0.11960343
163	0x3dce9e43	0.1008878
164	0x3c0a5b49	0.008444616
165	0x3d97ac66	0.07405929
166	0xbe465ff0	-0.19372535
167	0xbe3189bb	-0.17337696
168	0xbda86d38	-0.08223957
169	0xbe19e9d8	-0.1503061
170	0x3cba4ed2	0.022742663
171	0x3bfb8f08	0.0076769628
172	0x3dbe0ed7	0.09280174
173	0x3d644d26	0.055737637
174	0xbdc9bb43	-0.098501705
175	0xbd16889e	-0.036751382
176	0x3ca3ba94	0.019986428
177	0x3d29243e	0.04129433
178	0x3b2a0151	0.0025940726
179	0x3e42e7b1	0.19033696
180	0x3d1d0ac6	0.038340352
181	0x3db1b397	0.08676832
182	0xbd2b61e7	-0.041841414
183	0xbe1890fc	-0.14899057
184	0xbe084099	-0.13305892
185	0xbe001e80	-0.12511635
186	0xbdcb49e1	-0.09926201
187	0xbd22dc86	-0.03976109
188	0x3dcbb383	0.099463485
189	0xbddcfc03	-0.10790255
190	0xbdc2c233	-0.09509697
191	0xbd85ed59	-0.06539411
192	0xbcc22188	-0.02369763
193	0x3da598e1	0.080858
194	0xbe1f8243	-0.15577035
195	0x3dc9d3ae	0.09854828
196	0x3d8957a5	0.0670617
197	0xbd734662	-0.059393294
198	0x3e20fd58	0.15721643
199	0x3dd7eb64	0.10542944
200	0x3d36c9d9	0.04462609
201	0x3d3fb75a	0.046805717
202	0x3e21bb11	0.15794016
203	0xbe0fddd7	-0.14049469
204	0xbdc534b7	-0.09629195
205	0x3df6f3e4	0.12058237
206	0x3e239bd8	0.15977418
207	0x3b4bc9b4	0.0031095566
208	0x3ceaf620	0.028681815
209	0xbddf1286	-0.10892205
210	0x3b0eb18a	0.0021773302
211	0xbe2321e5	-0.15930898
212	0x3d305d63	0.04305781
213	0x3dea0550	0.114267945
214	0x3e1ce95c	0.15323395
215	0xbd2a8caf	-0.041638073
216	0x3dcabce1	0.09899307
217	0x3e220cb0	0.15825152
218	0xbe1f8c06	-0.15580758
219	0x3e219814	0.1578067
220	0xbe04faec	-0.12986344
221	0x3dc1319a	0.09433289
222	0xbc89deab	-0.01682981
223	0x3e3c094e	0.18362924
224	0xbd1a562e	-0.037679844
225	0x3da13b14	0.078725964
226	0x3e5fc754	0.21853381
227	0x3d6d03b9	0.05786488
228	0xbdf8c069	-0.12146074
229	0xbe0645b2	-0.13112524
230	0xbdc9a148	-0.09845215
231	0xbd524041	-0.05133081
232	0xbe3a9503	-0.18220906
233	0x3c60f6cb	0.013730715
234	0xbe212a0a	-0.15738693
235	0xbe1647ae	-0.14675781
236	0x3d88246a	0.066475704
237	0x3d062eb5	0.032759387
238	0x3dbad947	0.091234736
239	0x3cbcfcab	0.0230697
240	0xbe11a69d	-0.14223714
241	0x3dfbbfb8	0.12292427
242	0xbdf17004	-0.117889434
243	0x3e1a9bb8	0.15098464
244	0xbdd91245	-0.10599188
245	0xbd52d069	-0.051468287
246	0x3d70b194	0.0587631
247	0x3df3add3	0.11898389
248	0x3e035b09	0.12827696
249	0xbe008d4d	-0.12553902
250	0x3df96435	0.12177316
251	0xbdc8f20f	-0.09811794
252	0xbb1640c5	-0.002292679
253	0xbde332d4	-0.11093679
254	0x3daae467	0.083443455
255	0xbd8d5c7b	-0.06902405

layer2.1.bn2.weight f4 [10]
0	0x3f749d7b	0.95552796
1	0x3f7b1593	0.98079795
2	0x3f7c8087	0.9863362
3	0x3f81ac02	1.0130618
4	0x3f740988	0.95327044
5	0x3f78bb21	0.97160536
6	0x3f829831	1.0202695
7	0x3f8192a2	1.0122874
8	0x3f7c9754	0.9866841
9	0x3f79c366	0.9756378

layer2.1.bn2.bias f4 [10]
0	0x3c3e9cca	0.011634061
1	0x3d09ffc8	0.033691198
2	0xbd0b5bad	-0.034022976
3	0x3d8c4013	0.06848159
4	0x3c780a26	0.015139138
5	0x3caf529a	0.021401692
6	0x3c85a3d2	0.016313467
7	0x3d1505c2	0.036382444
8	0x3d4634b2	0.048390098
9	0x3cea1a99	0.028577136

layer2.1.bn2.running_mean f4 [10]
0	0xbdac0283	-0.083989166
1	0xbd151e46	-0.036405824
2	0x3d909e43	0.07061436
3	0xbcc31432	-0.02381334
4	0xbca0fe2f	-0.019652454
5	0xbd99cb3d	-0.07509468
6	0xbc518744	-0.0127885975
7	0x3d2ef558	0.042714447
8	0xbd6395ab	-0.055562656
9	0xbde4cde4	-0.11172083

layer2.1.bn2.running_var f4 [10]
0	0x3ddc8baf	0.1076883
1	0x3e15a4f8	0.14613712
2	0x3e06a6a9	0.13149513
3	0x3e6bf38c	0.23042125
4	0x3d9515d1	0.07279552
5	0x3dd50296	0.10400884
6	0x3dda9941	0.10673762
7	0x3e65e6e1	0.22451355
8	0x3e6b461d	0.22975965
9	0x3e20b1f8	0.1569289

layer2.1.se.fc.0.weight f4 [2, 10]
0	0x3dd0b8d4	0.10191503
1	0xbe87d9a1	-0.26533225
2	0x3e22aab1	0.15885426
3	0xbd079a8c	-0.03310637
4	0x3e949440	0.29019356
5	0xbd34e91f	-0.044167634
6	0x3de8df80	0.11370754
7	0xbe87719d	-0.26453868
8	0xbe8efe36	-0.27928323
9	0xbe86d8a1	-0.2633715
10	0xbdb8f7ef	-0.090316646
11	0x3daad85f	0.08342051
12	0x3c979c40	0.018507123
13	0xbda4cc39	-0.08046765
14	0xbe3a807a	-0.18213072
15	0x3e855036	0.2603776
16	0x3dabab5e	0.08382295
17	0xbe4897b1	-0.19589116
18	0xbdb75c60	-0.08953166
19	0x3dbd81cc	0.092532724

layer2.1.se.fc.2.weight f4 [10, 2]
0	0xbe10a459	-0.14125194
1	0x3ed0c34d	0.40774003
2	0x3e2519f8	0.16123188
3	0x3f096a9b	0.5367829
4	0xbec6b8d8	-0.388129
5	0x3e6fb9b8	0.2341069
6	0x3ec92919	0.39289168
7	0xbef65e1e	-0.4811868
8	0xbb79ec7d	-0.0038135343
9	0x3eb7bc89	0.35886028
10	0xbe0f2e85	-0.1398259
11	0x3db2d0bc	0.08731219
12	0xbe1b570d	-0.15169926
13	0x3f2b5530	0.6692686
14	0xbf237481	-0.63849646
15	0x3e2161a3	0.15759902
16	0x3caed61c	0.02134233
17	0xbd2e5b96	-0.042567812
18	0xbe530c7a	-0.20610228
19	0xbe2c9e72	-0.16857317
