bid/second.ckpt (torch, 632337 bytes, 131 tensors)

layer1.0.conv1.weight f4 [5, 5, 3]
-0.19780798 0.012591485 -0.090303704 -0.020647611 -0.061447315 0.1426621 0.13136263 0.091811575
0.13088977 -0.023357948 0.1471163 -0.25501812 0.13308643 0.048286915 -0.20827064 -0.2432764
-0.13263214 0.13315648 -4.547425e-05 0.14747041 -0.15552908 0.20708396 0.12231593 -0.14115545
-0.14776003 0.21772482 0.07167826 0.0797719 0.18131892 -0.14617595 -0.15109219 -0.0075974497
-0.1735534 -0.15164444 -0.13811907 0.30285743 -0.0292245 -0.23087204 -0.09540421 -0.110956736
-0.13019346 0.20208313 0.017627122 -0.011877331 0.10415194 -0.038493957 -0.022141593 0.16792797
-0.006054192 0.14103545 -0.15898745 0.053214826 -0.040876865 -0.019749453 -0.0107059935 -0.069799244
0.05325558 0.048467264 -0.22706212 -0.046527177 0.21623488 -0.099555396 0.22297001 -0.19171803
0.09860118 0.006047749 0.044649687 -0.08089552 0.04399379 0.0727816 -0.24971063 0.18130118
-0.124646105 0.070526 0.03905066
00000000: 2d8e 4abe 844c 4e3c 26f1 b8bd 2e25 a9bc
00000010: 2eb0 7bbd 0316 123e ed83 063e b507 bc3d
00000020: f807 063e 2b59 bfbc a8a5 163e bc91 82be
00000030: cf47 083e 80c8 453d e644 55be 731d 79be
00000040: b8d0 07be 2c5a 083e 9bbb 3eb8 7c02 173e
00000050: 0443 1fbe d10d 543e c680 fa3d 0e8b 10be
00000060: 684e 17be 41f3 5e3e 0dcc 923d 735f a33d
00000070: abab 393e 26af 15be e9b7 1abe 07f4 f8bb
00000080: fcb7 31be ae48 1bbe 166f 0dbe 2110 9b3e
00000090: 3868 efbc b869 6cbe 4863 c3bd 493d e3bd
000000a0: 6f51 05be e1ee 4e3e c166 903c 2399 42bc
000000b0: 9d4d d53d d7ab 1dbd 4962 b5bc 4ff5 2b3e
000000c0: 3e62 c6bb 996b 103e 9bcd 22be caf7 593d
000000d0: 806e 27bd 9bc9 a1bc 3168 2fbc e8f2 8ebd
000000e0: 8622 5a3d 9c85 463d f982 68be 4893 3ebd
000000f0: ad6c 5d3e b3e3 cbbd 4052 643e bb51 44be
00000100: 6aef c93d 322c c63b 97e2 363d 8dac a5bd
00000110: d532 343d 850e 953d 25b4 7fbe 04a7 393e
00000120: 7546 ffbd ef6f 903d 96f3 1f3d

layer1.0.bn1.weight f4 [5]
1.0022705 1.0031254 0.9479163 1.0057564 0.93448377
00000000: 664a 803f 6a66 803f a5aa 723f a0bc 803f
00000010: 543a 6f3f

layer1.0.bn1.bias f4 [5]
0.07558648 -0.03136601 0.045553178 0.08459872 -0.036274467
00000000: 16cd 9a3d a579 00bd f895 3a3d 1842 ad3d
00000010: 8994 14bd

layer1.0.bn1.running_mean f4 [5]
-0.006628944 -0.46084073 -0.8460823 0.4411779 0.52954996
00000000: 9d37 d9bb 51f3 ebbe da98 58bf 12e2 e13e
00000010: 9690 073f

layer1.0.bn1.running_var f4 [5]
0.26990128 0.155229 0.19813529 0.02612759 0.20628981
00000000: 8030 8a3e 5af4 1e3e fae3 4a3e 8709 d63c
00000010: a33d 533e

layer1.0.conv2.weight f4 [5, 5, 3]
0.09246186 0.0981064 0.18679956 0.16506045 -0.00742676 0.007975082 -0.08309534 -0.13339925
-0.022814078 -0.09154826 0.19335856 -0.15795581 -0.17415051 -0.17229493 0.16050091 -0.05880819
-0.0744119 0.09770379 -0.18944827 -0.021855827 -0.21786775 0.15981986 -0.23377271 -0.034239117
0.2188132 -0.10441685 0.118023984 0.049039304 -0.0045713326 0.1683979 -0.17480513 0.09468618
-0.19555189 0.17867893 -0.15506129 0.07526581 -0.11007883 0.15713829 0.07623087 -0.020862123
-0.11634317 0.2616344 -0.09614323 -0.21532229 0.10321087 0.14886469 -0.29813108 -0.19382367
-0.17785826 0.0030525532 -0.017137283 0.036020283 -0.26053485 0.10369251 -0.1640374 0.07061126
0.092270374 0.22661632 -0.2507133 0.12308814 0.05499396 -0.027782893 -0.032036882 -0.21833903
0.020639323 -0.08690786 -0.08331227 0.2297694 0.1529342 -0.10707416 -0.31185538 0.036950476
0.07051361 -0.00479324 -0.1645996
00000000: a55c bd3d 02ec c83d 6248 3f3e 9b05 293e
00000010: 2e5c f3bb eba9 023c e42d aabd d099 08be
00000020: 97e4 babc a77d bbbd c9ff 453e 2bbf 21be
00000030: 8354 32be 156e 30be 5a5a 243e dbe0 70bd
00000040: 4465 98bd ed18 c83d bafe 41be fe0a b3bc
00000050: b918 5fbe d1a7 233e 1d62 6fbe 513e 0cbd
00000060: 9110 603e 80d8 d5bd 8fb6 f13d 70dd 483d
00000070: 1ecb 95bb 8070 2c3e 1e00 33be d4ea c13d
00000080: c13e 48be 9cf7 363e 63c8 1ebe f624 9a3d
00000090: 0271 e1bd dce8 203e ee1e 9c3d 0be7 aabc
000000a0: 5445 eebd f2f4 853e bee6 c4bd 727d 5cbe
000000b0: 3860 d33d fc6f 183e a3a4 98be b679 46be
000000c0: 7a20 36be 580d 483b 7d63 8cbc 018a 133d
000000d0: d364 85be bd5c d43d 6cf9 27be a39c 903d
000000e0: 40f8 bc3d 1c0e 683e 7e5d 80be a215 fc3d
000000f0: 5941 613d f398 e3bc 1b39 03bd 4494 5fbe
00000100: cc13 a93c c0fc b1bd a09f aabd ab48 6b3e
00000110: c89a 1c3e b249 dbbd 82ab 9fbe 6259 173d
00000120: 7169 903d 9d10 9dbb cc8c 28be

layer1.0.bn2.weight f4 [5]
0.9943548 1.0127126 1.0671871 0.98471016 1.048881
00000000: 098e 7e3f 91a0 813f 9699 883f f715 7c3f
00000010: bc41 863f

layer1.0.bn2.bias f4 [5]
0.07201954 0.056120962 0.11816657 0.021290777 -0.0072609065
00000000: fb7e 933d 18df 653d 5101 f23d ff69 ae3c
00000010: e6ec edbb

layer1.0.bn2.running_mean f4 [5]
0.034776002 -0.026579658 -0.03541413 -0.15658832 -0.134231
00000000: 4871 0e3d 95bd d9bc 680e 11bd b058 20be
00000010: da73 09be

layer1.0.bn2.running_var f4 [5]
0.19615434 0.29735705 0.039561465 0.19762419 0.11964528
00000000: afdc 483e 2f3f 983e 340b 223d ff5d 4a3e
00000010: 9608 f53d

layer1.0.se.fc.0.weight f4 [1, 5]
-0.08044096 0.33093995 0.16133155 -0.41008633 0.010040398
00000000: 3bbe a4bd f670 a93e 1934 253e d6f6 d1be
00000010: 7b80 243c

layer1.0.se.fc.2.weight f4 [5, 1]
0.3066023 0.8516841 -0.122801565 0.9299231 -0.2890597
00000000: fafa 9c3e f807 5a3f 637f fbbd 710f 6e3f
00000010: a2ff 93be

layer1.0.shortcut.0.weight f4 [5, 5, 1]
0.24765836 -0.17299779 0.04499033 -0.4085857 -0.12129438 0.24441665 -0.47482452 -0.039202545
-0.09690323 0.38892874 -0.08494442 0.34137636 0.24026443 -0.35679466 -0.35626453 -0.25813752
-0.08135215 0.1400607 0.27939758 0.19754438 0.3334346 0.17373537 0.021407533 0.21287508
0.28736898
00000000: 279a 7d3e 5526 31be c847 383d 2532 d1be
00000010: 3069 f8bd 5c48 7a3e 331c f3be d992 20bd
00000020: 3375 c6bd ab21 c73e 57f7 adbd e2c8 ae3e
00000030: e107 763e caad b6be 4e68 b6be 9a2a 84be
00000040: f59b a6bd 126c 0f3e 330d 8f3e 1349 4a3e
00000050: f1b7 aa3e afe7 313e da5e af3c edfb 593e
00000060: 0722 933e

layer1.0.shortcut.1.weight f4 [5]
1.0080913 1.0305791 0.9029874 1.0079939 1.0061914
00000000: 2309 813f 04ea 833f 2f2a 673f f205 813f
00000010: e1ca 803f

layer1.0.shortcut.1.bias f4 [5]
0.07248953 0.05873037 0.114428885 0.024727821 -0.007203256
00000000: 6475 943d 428f 703d b159 ea3d 0092 ca3c
00000010: 4a09 ecbb

layer1.0.shortcut.1.running_mean f4 [5]
0.8649146 -0.15320589 0.8955296 -0.8097826 0.09962568
00000000: 0b6b 5d3f 01e2 1cbe 6e41 653f ea4d 4fbf
00000010: 8c08 cc3d

layer1.0.shortcut.1.running_var f4 [5]
0.10746563 0.16642419 0.089762025 0.15280071 0.1948427
00000000: f116 dc3d 1a6b 2a3e 27d5 b73d ca77 1c3e
00000010: d884 473e

layer1.1.conv1.weight f4 [5, 5, 3]
0.04141354 0.29711333 0.18681258 0.15518166 0.0431509 -0.12411336 0.2198537 -0.18003646
-0.20960626 -0.07203111 -0.14374824 0.038167436 -0.12922044 0.07616154 0.15183364 -0.2530269
-0.0422061 -0.14573349 -0.196809 -0.12731177 0.062390704 0.26181313 -0.15098779 0.009818135
0.15557958 0.21310443 -0.11062717 -0.08316138 -0.15191363 -0.2664222 -0.1882627 -0.24698587
0.11259502 -0.02777506 0.101503015 -0.05441174 0.23420979 -0.06960271 0.0574261 -0.007878677
0.1171959 0.023811093 0.029433293 -0.23215951 0.0072044088 0.25321117 -0.21751319 0.0027308369
-0.13141803 0.08058849 -0.04474664 -0.13150097 -0.035774328 -0.01837295 0.04298301 -0.23013498
0.17454796 0.029912904 0.2296321 -0.19292018 0.07537959 0.009313329 -0.061368838 0.19134651
0.2569871 -0.24259986 0.06841339 -0.1776531 0.14864835 -0.068359934 -0.27895665 0.11135691
-0.04427158 -0.009052948 -0.07176639
00000000: 3ea1 293d 3d1f 983e cc4b 3f3e f1e7 1e3e
00000010: 00bf 303d 252f febd 5421 613e 7a5b 38be
00000020: 06a3 56be 0c85 93bd bd32 13be 7555 1c3d
00000030: 5d52 04be 95fa 9b3d 477a 1b3e be8c 81be
00000040: 4ee0 2cbd 293b 15be 4c88 49be 045e 02be
00000050: 658d 7f3d 5f0c 863e 8b9c 1abe 3edc 203c
00000060: 4150 1f3e 0c38 5a3e 7f90 e2bd 8350 aabd
00000070: 3f8f 1bbe 7e68 88be f0c7 40be dde9 7cbe
00000080: 3898 e63d 8688 e3bc d0e0 cf3d d8de 5ebd
00000090: b1d4 6f3e de8b 8ebd a137 6b3d 9115 01bc
000000a0: 6704 f03d 7b0f c33c 171e f13c 39bb 6dbe
000000b0: f612 ec3b e5a4 813e c7bb 5ebe d7f7 323b
000000c0: 7392 06be 940b a53d 4148 37bd 31a8 06be
000000d0: 1a88 12bd de82 96bc f40e 303d 81a8 6bbe
000000e0: b3bc 323e e80b f53c ad24 6b3e de8c 45be
000000f0: 9d60 9a3d ef96 183c e45d 7bbd 57f0 433e
00000100: d093 833e 196c 78be 521c 8c3d b2ea 35be
00000110: 4637 183e 4b00 8cbd 68d3 8ebe 170f e43d
00000120: 1e56 35bd d152 14bc 42fa 92bd

layer1.1.bn1.weight f4 [5]
1.035688 1.0112798 0.97574526 1.0046508 0.9836579
00000000: 6d91 843f 9e71 813f 71ca 793f 6698 803f
00000010: 01d1 7b3f

layer1.1.bn1.bias f4 [5]
0.09111272 0.00080433 -0.034276653 -0.023311365 0.012401009
00000000: 4e99 ba3d acd9 523a ad65 0cbd 7af7 bebc
00000010: 9a2d 4b3c

layer1.1.bn1.running_mean f4 [5]
0.111866884 -0.24987017 -0.02592393 -0.07908401 0.06968632
00000000: 771a e53d f7dd 7fbe 6c5e d4bc ccf6 a1bd
00000010: b4b7 8e3d

layer1.1.bn1.running_var f4 [5]
0.18903764 0.47391364 0.11504234 0.023462178 0.09349458
00000000: 1593 413e cfa4 f23e 519b eb3d c133 c03c
00000010: 167a bf3d

layer1.1.conv2.weight f4 [5, 5, 3]
0.0017071487 0.15942584 0.16815186 -0.13582985 -0.13268365 -0.1719163 0.16276458 0.20042977
0.12868145 0.047996882 0.19193377 0.20703128 -0.020883128 -0.21518627 0.19532977 -0.10036467
0.2477292 -0.205133 0.0036308547 0.0044159456 0.0077770404 0.04315866 0.20300746 0.14904143
-0.11550528 0.030243676 0.26614547 0.061185993 -0.19863772 -0.0636751 0.041993584 -0.2525555
-0.17653607 -0.21431443 -0.07811194 0.17959023 -0.019328423 -0.14186372 0.100383334 -0.18067338
0.20965935 -0.22433285 0.06443446 0.21218222 0.25925913 0.008837172 0.19956067 -0.17279752
-0.21884623 -0.020119209 -0.22055419 -0.037884377 0.10418684 0.13579504 -0.06355898 -0.017975403
-0.22466058 0.16821265 0.118313625 0.03293591 0.17194565 0.18917078 -0.03751156 -0.29344147
0.08421046 -0.28887212 0.21399279 0.16089508 -0.2245 -0.102613606 0.03541636 -0.020032644
-0.11073097 0.23558183 0.21501762
00000000: 68c2 df3a 8740 233e 0030 2c3e fb16 0bbe
00000010: 39de 07be d40a 30be c2ab 263e 763d 4d3e
00000020: 12c5 033e 6198 443d 498a 443e 0200 543e
00000030: 1813 abbc ca59 5cbe 8704 483e fe8b cdbd
00000040: b9ac 7d3e 630e 52be a2f3 6d3b a3b3 903b
00000050: 8bd6 fe3b 23c7 303d 30e1 4f3e 519e 183e
00000060: 088e ecbd 96c1 f73c 3844 883e 2a9e 7a3d
00000070: b067 4bbe 1768 82bd 7701 2c3d f44e 81be
00000080: dfc5 34be 3e75 5bbe 27f9 9fbd 80e6 373e
00000090: a456 9ebc b944 11be c795 cd3d 7102 39be
000000a0: f1b0 563e 83b7 65be 37f6 833d 4c46 593e
000000b0: 9dbd 843e c9c9 103c a259 4c3e d5f1 30be
000000c0: 3a19 60be 0ad1 a4bc f5d8 61be a62c 1bbd
000000d0: e95f d53d db0d 0b3e 362b 82bd 2741 93bc
000000e0: 6c0d 66be f03f 2c3e 6a4e f23d cee7 063d
000000f0: 8512 303e fcb5 413e b9a5 19bd f63d 96be
00000100: 8976 ac3d 0ce7 93be ed20 5b3e aec1 243e
00000110: 54e3 65be 1527 d2bd bf10 113d 801b a4bc
00000120: ebc6 e2bd 5d3c 713e 942d 5c3e

layer1.1.bn2.weight f4 [5]
1.0077902 0.9705181 0.99109405 0.96293646 0.9714364
00000000: 45ff 803f e073 783f 57b8 7d3f 0183 763f
00000010: 0eb0 783f

layer1.1.bn2.bias f4 [5]
0.029608391 0.05512963 0.11717557 0.042783886 -0.013890791
00000000: 4c8d f23c 9bcf 613d bff9 ef3d 283e 2f3d
00000010: 3396 63bc

layer1.1.bn2.running_mean f4 [5]
0.19411685 0.070149325 -0.0841208 -0.0623937 0.07213135
00000000: 91c6 463e 73aa 8f3d 8747 acbd 8990 7fbd
00000010: 9ab9 933d

layer1.1.bn2.running_var f4 [5]
0.106126755 0.10804412 0.15456425 0.11015623 0.37477234
00000000: fc58 d93d 3c46 dd3d 1746 1e3e 9799 e13d
00000010: 29e2 bf3e

layer1.1.se.fc.0.weight f4 [1, 5]
0.23544334 0.3694975 0.1277083 -0.23264137 -0.2012026
00000000: 0f18 713e c72e bd3e f7c5 023e 8a39 6ebe
00000010: 0e08 4ebe

layer1.1.se.fc.2.weight f4 [5, 1]
-0.4395115 -0.30142197 0.2044003 -0.4969374 0.7057259
00000000: a707 e1be fb53 9abe 504e 513e 946e febe
00000010: 74aa 343f

layer1.2.conv1.weight f4 [5, 5, 3]
0.12555976 -0.2697365 0.18314973 -0.073883146 0.20620592 -0.234162 -0.013255596 -0.069099374
-0.20513894 0.1543284 -0.11771271 0.079735175 0.013427904 -0.08936819 0.15549652 0.26758382
0.2648237 0.133128 0.08796447 0.07812049 0.015386655 -0.025906827 0.051020883 0.17884439
-0.011739877 -0.003082118 -0.11765541 0.0460178 -0.20079535 0.030450385 -0.027746972 0.1423771
-0.21494487 0.25989074 -0.19683902 0.263095 -0.25402367 -0.1090841 -0.17508245 -0.16929609
0.02263598 0.08310604 -0.16195846 0.059895515 0.003431929 0.16761078 -0.04701688 -0.19223529
-0.15672478 -0.11760368 -0.024201002 -0.040622476 -0.2661392 -0.12671742 0.016017329 -0.011536592
-0.08223573 -0.0073099067 0.094216436 -0.023838827 -0.25333205 -0.19688618 0.2556425 0.011214003
0.11240266 0.0729591 -0.0136942305 0.2443637 -0.06348774 -0.12298915 0.118441746 0.028849134
-0.24425136 -0.088486455 -0.109500326
00000000: bd92 003e e71a 8abe 9a8b 3b3e 0c50 97bd
00000010: a527 533e 2ac8 6fbe 002e 59bc f983 8dbd
00000020: f10f 52be 4408 1e3e 5c13 f1bd 324c a33d
00000030: b600 5c3c ab06 b7bd 7b3a 1f3e bf00 893e
00000040: f996 873e b552 083e b726 b43d a3fd 9f3d
00000050: 4f18 7c3c 8e3a d4bc 46fb 503d fc22 373e
00000060: 9d58 40bc 5cfd 49bb 52f5 f0bd 297d 3c3d
00000070: 4c9d 4dbe 1673 f93c 9e4d e3bc 4dcb 113e
00000080: 821a 5cbe 6610 853e 2b90 49be 63b4 863e
00000090: 640f 82be 7c67 dfbd d048 33be f45b 2dbe
000000a0: 176f b93c 8033 aa3d 70d8 25be 0055 753d
000000b0: 37ea 603b 29a2 2b3e c694 40bd 54d9 44be
000000c0: 767c 20be 33da f0bd 2e41 c6bc c163 26bd
000000d0: 6643 88be 36c2 01be c636 833c f903 3dbc
000000e0: 356b a8bd f187 efbb 8cf4 c03d a549 c3bc
000000f0: bdb4 81be 889c 49be 93e3 823e f0ba 373c
00000100: 5e33 e63d 956b 953d c45d 60bc 7a3a 7a3e
00000110: dc05 82bd bce1 fbbd 9691 f23d 0555 ec3c
00000120: 071d 7abe 6338 b5bd b541 e0bd

layer1.2.bn1.weight f4 [5]
0.978635 1.0372939 1.0416582 0.9647252 1.0234842
00000000: d387 7a3f 0cc6 843f 0e55 853f 3bf8 763f
00000010: 8801 833f

layer1.2.bn1.bias f4 [5]
-0.002406792 0.027077116 0.024837088 -0.031161085 0.008593215
00000000: 45bb 1dbb d4d0 dd3c 2677 cb3c 8845 ffbc
00000010: 8eca 0c3c

layer1.2.bn1.running_mean f4 [5]
-0.100535706 0.3303117 -0.092254184 -0.3047381 -0.021279376
00000000: aae5 cdbd 9d1e a93e c3ef bcbd a206 9cbe
00000010: 1652 aebc

layer1.2.bn1.running_var f4 [5]
0.07669743 0.15539736 0.15863153 0.028599268 0.165329
00000000: 8b13 9d3d 7c20 1f3e 4e70 223e 0349 ea3c
00000010: 014c 293e

layer1.2.conv2.weight f4 [5, 5, 3]
0.21058454 0.056795012 -0.084093705 0.0682522 -0.1536976 -0.20573097 -0.102511056 0.1437252
0.2407152 -0.1720464 0.098951094 -0.043364808 -0.18404625 0.15277684 -0.12458233 -0.18116698
0.104256734 -0.080735326 0.1949535 0.030388819 0.106263965 0.05616799 -0.21186852 0.15936549
-0.22749324 0.20947304 0.21415995 0.17352138 -0.14154798 -0.062136076 0.1449229 0.18237592
0.23012061 0.09280056 -0.013528291 0.19236968 -0.17011908 0.2611227 0.16480976 0.08537856
-0.18460938 -0.12490659 0.030104015 0.22395763 -0.21311335 -0.088765614 0.28819683 0.11725525
0.027513593 -0.05255402 -0.18414314 0.06315909 -0.10837101 -0.077771336 0.15669897 -0.00397649
0.062043853 0.20215024 -0.017289594 -0.03269236 -0.24083893 -0.00300537 0.20584367 -0.040263683
-0.17516713 0.003203245 -0.25752506 -0.013661041 0.039514247 -0.15641046 0.049499243 0.08778655
-0.22026105 0.19652517 0.13017005
00000000: 79a3 573e e3a1 683d 5239 acbd cfc7 8b3d
00000010: e762 1dbe 24ab 52be 51f1 d1bd b32c 133e
00000020: 0c7e 763e ee2c 30be dfa6 ca3d 4c9f 31bd
00000030: 9f76 3cbe 8871 1c3e 0525 ffbd d683 39be
00000040: 8e84 d53d 9058 a5bd e4a1 473e f9f1 f83c
00000050: eca0 d93d 6810 663d 10f4 58be b530 233e
00000060: fdf3 68be 1a80 563e bf4c 5b3e 97af 313e
00000070: f4f1 10be 6682 7ebd ab66 143e c1c0 3a3e
00000080: bda4 6b3e 380e be3d c4a5 5dbc 8ffc 443e
00000090: b233 2ebe e0b1 853e e4c3 283e f4da ae3d
000000a0: 3e0a 3dbe 07cf ffbd b29c f63c 2655 653e
000000b0: 633a 5abe bfca b5bd 898e 933e 8523 f03d
000000c0: 3064 e13c e242 57bd 0590 3cbe 8e59 813d
000000d0: 9ff1 ddbd 9446 9fbd b275 203e 374d 82bb
000000e0: b221 7e3d 7900 4f3e e8a2 8dbc 6de8 05bd
000000f0: 7b9e 76be bef5 44bb afc8 523e 88eb 24bd
00000100: 035f 33be 89ed 513b 53da 83be 8fd2 5fbc
00000110: b1d9 213d 102a 20be b8bf 4a3d 6fc9 b33d
00000120: 1d8c 61be e53d 493e 4c4b 053e

layer1.2.bn2.weight f4 [5]
0.9719566 0.96238965 0.9797148 0.97169375 0.94059604
00000000: 26d2 783f 2b5f 763f 97ce 7a3f ecc0 783f
00000010: e7ca 703f

layer1.2.bn2.bias f4 [5]
0.007664767 0.039005786 0.06681802 0.03257665 -0.02809258
00000000: ba28 fb3b 88c4 1f3d e3d7 883d 186f 053d
00000010: 6922 e6bc

layer1.2.bn2.running_mean f4 [5]
-0.017958822 0.09374085 0.23268698 0.062106647 -0.09832285
00000000: 611e 93bc 34fb bf3d 7f45 6e3e 8a63 7e3d
00000010: 7e5d c9bd

layer1.2.bn2.running_var f4 [5]
0.057617936 0.2670715 0.32055566 0.08304364 0.118371405
00000000: c900 6c3d 98bd 883e df1f a43e c912 aa3d
00000010: b56c f23d

layer1.2.se.fc.0.weight f4 [1, 5]
-0.32148322 0.060611963 0.047882613 0.44602278 0.0080554895
00000000: 7399 a4be 4044 783d 8f20 443d 195d e43e
00000010: 2cfb 033c

layer1.2.se.fc.2.weight f4 [5, 1]
0.12778188 -0.91427064 -0.706602 0.778275 -0.8319395
00000000: 41d9 023e a40d 6abf dee3 34bf 083d 473f
00000010: fdf9 54bf

layer2.0.conv1.weight f4 [10, 5, 3]
-0.14951034 -0.15457237 -0.12054445 0.20804782 0.2706868 -0.22848251 0.24361831 0.07694917
0.13646594 -0.24568188 -0.29445344 0.023418957 -0.23597646 -0.1431072 0.104774855 0.10235749
0.13317671 -0.08329693 -0.13725048 -0.26046112 -0.21053706 0.21715811 0.17217764 -0.19036753
-0.21595383 0.020421445 -0.24164969 -0.07097335 -0.104807325 0.22147031 -0.18912119 -0.07793395
-0.13884452 -0.030963624 -0.21071859 0.15614738 -0.16312076 0.10671707 0.15280513 0.13745096
-0.17177427 -0.080419645 -0.12610112 -0.12645161 0.07045882 -0.21549894 0.076036416 0.07900071
-0.06893854 0.056931257 0.23310353 0.052343506 -0.12842904 -0.21071863 -0.22338983 -0.004020185
0.20592737 -0.03314332 -0.19225909 -0.1294589 -0.107559375 -0.25907716 -0.17454018 -0.049731873
-0.13244374 -0.047579788 -0.06544013 -0.11255383 -0.092842564 -0.26303777 -0.052797463 -0.23625769
-0.16289768 0.0016197723 -0.12806664 -0.047197375 -0.023636092 -0.19864486 0.022657568 0.26519707
-0.088791415 0.17659043 -0.0823835 -0.22331972 0.16740835 0.09027877 -0.20755623 -0.13749024
0.069150366 -0.012107991 -0.1879181 0.1775902 -0.22703388 -0.16188611 0.006823714 -0.21860224
0.07640189 0.24948756 0.08712268 0.06336726 0.17581938 0.030341055 -0.022947446 0.14741094
0.14914285 -0.09279714 0.069625616 0.11316675 -0.014527774 0.012700919 0.062028695 -0.06041714
0.15545382 0.3040799 -0.09432427 0.24180533 0.21300344 0.24161063 -0.049550913 -0.10969094
-0.042483546 0.20012578 0.11164201 0.22399187 0.050995346 -0.1094585 0.19670902 0.23522432
0.126462 0.035923418 0.25098702 0.11187068 -0.057141013 -0.20000249 0.093994565 0.061502602
-0.051354803 -0.19441979 0.13454013 0.11495814 0.15352862 0.05659952 -0.05169769 0.29162794
-0.19976091 -0.07690609 0.15929076 0.036758933 -0.12403039 -0.023284791
00000000: 3d19 19be 3848 1ebe 02e0 f6bd 7d0a 553e
00000010: 7697 8a3e 52f7 69be 1477 793e 8797 9d3d
00000020: babd 0b3e 0894 7bbe 9ac2 96be 1dd9 bf3c
00000030: d0a3 71be b28a 12be 3394 d63d cea0 d13d
00000040: 7a5f 083e 9597 aabd 648b 0cbe 295b 85be
00000050: 0797 57be b25e 5e3e 564f 303e b5ef 42be
00000060: 0023 5dbe e04a a73c 0473 77be 7a5a 91bd
00000070: 39a5 d6bd 1dc9 623e fca8 41be d69b 9fbd
00000080: 422d 0ebe 6da7 fdbc 9dc6 57be 19e5 1f3e
00000090: 2109 27be 7b8e da3d f378 1c3e f2bf 0c3e
000000a0: 98e5 2fbe 0eb3 a4bd a720 01be 887c 01be
000000b0: b74c 903d c1ab 5cbe fbb8 9b3d 20cb a13d
000000c0: a62f 8dbd c030 693d b1b2 6e3e 2566 563d
000000d0: e782 03be a0c6 57be 4ec0 64be c2bb 83bb
000000e0: a0de 523e 4ac1 07bd 91df 44be e090 04be
000000f0: 1748 dcbd c3a5 84be a9ba 32be a6b3 4bbd
00000100: 559f 07be 06e3 42bd 7a05 86bd 9f82 e6bd
00000110: 3e24 bebd e3ac 86be 2742 58bd 89ed 71be
00000120: a6ce 26be 8a4e d43a e723 03be 0952 41bd
00000130: 7aa0 c1bc 8f69 4bbe 5d9c b93c e9c7 873e
00000140: 46d8 b5bd 1fd4 343e aeb8 a8bd edad 64be
00000150: 186d 2b3e 13e4 b83d 9f89 54be 3eca 0cbe
00000160: b59e 8d3d 9860 46bc 9a6d 40be 35da 353e
00000170: 927b 68be 79c5 25be 7699 df3b 44d9 5fbe
00000180: 9878 9c3d ab79 7f3e 606d b23d b2c6 813d
00000190: ff09 343e ce8d f83c 48fc bbbc e5f2 163e
000001a0: e7b8 183e 6d0c bebd e097 8e3d f8c3 e73d
000001b0: e705 6ebc 8417 503c cd11 7e3d f777 77bd
000001c0: 492f 1f3e 5cb0 9b3e 152d c1bd d19b 773e
000001d0: 931d 5a3e c768 773e e6f5 4abd a5a5 e0bd
000001e0: 3a03 2ebd c6ed 4c3e 91a4 e43d 205e 653e
000001f0: 7fe0 503d c72b e0bd 176e 493e a5de 703e
00000200: 417f 013e 6f24 133d 5f81 803e 741c e53d
00000210: b20c 6abd 74cd 4cbe 3980 c03d 27ea 7b3d
00000220: 6a59 52bd fb15 47be e3c4 093e 2c6f eb3d
00000230: 9b36 1d3e e6d4 673d f5c0 53bd 4250 953e
00000240: 208e 4cbe f180 9dbd 1e1d 233e 8990 163d
00000250: a503 febd bfbf bebc

layer2.0.bn1.weight f4 [10]
0.96745515 0.9888706 1.0034595 1.0079682 0.989774 1.0110478 1.0030475 0.97407734
1.0078288 1.0018505
00000000: 24ab 773f a026 7d3f 5c71 803f 1a05 813f
00000010: d461 7d3f 046a 813f dc63 803f 225d 793f
00000020: 8900 813f a33c 803f

layer2.0.bn1.bias f4 [10]
-0.05919795 -0.0012566212 -0.0010041036 0.005777886 -0.026402172 0.015623961 0.01514512 0.03063735
0.027000798 -0.03207674
00000000: 8d79 72bd 36b5 a4ba 209c 83ba 6c54 bd3b
00000010: 5e49 d8bc a4fb 7f3c 3d23 783c 2efb fa3c
00000020: c730 dd3c e662 03bd

layer2.0.bn1.running_mean f4 [10]
-0.24648257 -0.3063734 0.06807984 -0.021969771 -0.5845902 -0.19464979 -0.05823634 0.24928631
0.41934195 0.09717932
00000000: ed65 7cbe f9dc 9cbe 716d 8b3d f3f9 b3bc
00000010: b4a7 15bf 4652 47be 3a89 6ebd e944 7f3e
00000020: fdb3 d63e f405 c73d

layer2.0.bn1.running_var f4 [10]
0.0688269 0.08869231 0.06881055 0.05918984 0.20064254 0.0637656 0.21427888 0.03207576
0.08784697 0.062794104
00000000: 1ef5 8c3d 50a4 b53d 8cec 8c3d 0c71 723d
00000010: 3d75 4d3e 8a97 823d ec6b 5b3e df61 033d
00000020: 1de9 b33d 329a 803d

layer2.0.conv2.weight f4 [10, 10, 3]
-0.051807065 -0.09733662 -0.0072605642 -0.015685087 0.06527165 -0.04313162 -0.10059845 0.053552996
0.019241208 0.026282214 0.091068 -0.03811321 0.10150765 -0.14602372 -0.011754504 0.04923681
0.18124832 0.14906341 0.13184074 -0.025733525 -0.18603688 0.13123724 -0.13042983 -0.08168141
-0.10442525 0.13420555 -0.17229027 -0.05811793 0.05324008 -0.12291367 -0.017469343 -0.07277354
0.13594891 0.08869327 0.12383853 -0.03132687 0.0643594 -0.24329424 0.07654574 0.101218574
-0.038364258 -0.0013134087 0.13523373 -0.051403865 0.16751525 -0.008692808 -0.034033358 0.09775348
0.09041032 -0.02523253 -0.0093162805 -0.14836873 0.08275227 -0.026529174 0.16850455 0.17278856
0.118617855 -0.13633797 0.15403643 0.17308624 0.1461283 0.13743906 -0.006787326 0.0144829005
-0.01003689 0.084081516 -0.13801114 -0.19208077 0.07145496 -0.1316537 -0.04395389 -0.06523726
0.015391294 -0.16083758 0.068557665 -0.19558859 0.005582641 -0.10574159 -0.116561346 0.06073294
-0.027094612 0.06983099 0.08147709 0.12716435 0.13596413 -0.040085036 0.045044143 0.1232295
0.03752753 -0.015970208 0.040912587 0.12328189 0.10192647 -0.04428925 -0.0049910448 0.036771543
-0.12724891 0.13377856 0.18788442 0.079643674 0.008334828 0.12616725 -0.11439367 -0.056293495
0.027777355 -0.021457968 -0.09141079 0.0012645561 -0.04272794 -0.0446854 -0.11887698 -0.13446157
0.1710988 -0.099481 0.040608548 -0.18989424 -0.026210599 -0.07374591 -0.09066433 -0.14853351
0.13042678 -0.048815418 -0.1158887 -0.17459555 -0.033765677 0.21616454 -0.09881301 -0.10829815
-0.06660959 -0.13817249 0.18972978 0.07476998 0.12198338 -0.12991863 -0.010647847 -0.038713545
-0.14096238 -0.034328397 0.11738775 -0.0014032339 -0.10606515 -0.19586031 -0.11228802 0.11150612
-0.06604753 -0.12336407 0.16749641 -0.0135844955 -0.15139298 0.047219053 -0.11679595 0.040685866
-0.18714462 0.18826541 -0.09147182 0.044761114 0.08542669 -0.1834048 0.023619229 -0.00698451
0.10247816 0.0062410887 -0.1540166 -0.108013645 -0.13054007 -0.0360451 -0.15650764 -0.0662909
0.15138066 -0.09442868 0.09793998 0.0013540196 0.16790156 0.17195387 -0.079012044 0.08004519
-0.077156305 0.15827933 0.033369463 0.15011694 0.1296927 -0.1589064 -0.08799365 -0.12271581
-0.11295375 0.05713181 0.15526004 -0.052823827 -0.06429724 0.14465028 -0.21522123 0.003164705
0.12805362 -0.084494464 -0.0014370093 -0.039591957 0.13647324 0.07114054 -0.08082166 0.13117403
0.03638724 -0.1519958 0.02709405 0.09054886 -0.124305725 0.030870164 -0.15862247 0.0043752734
-0.19843078 0.113403834 0.12400513 0.20463187 0.16486716 -0.08298604 0.13237125 -0.13632956
-0.07787377 -0.009248881 0.13734889 -0.13401368 -0.16924989 0.089006424 0.048070416 0.12899578
0.13655029 -0.02665014 0.04188883 0.039424915 0.092192106 -0.1706818 0.09157995 -0.03786857
0.15045087 0.06226246 0.053184096 0.018552858 -0.11189987 -0.13922681 -0.14442083 -0.16099206
-0.068434246 0.053320542 0.09845191 0.07474146 0.045233227 -0.06779337 -0.07098465 -0.13289267
-0.14130893 0.028754963 0.14821273 0.14078774 -0.08269287 -0.081025094 0.056646608 -0.17073792
00000000: a533 54bd 6c58 c7bd 07ea edbb 037e 80bc
00000010: 25ad 853d c8aa 30bd 8f06 cebd 635a 5b3d
00000020: bd9f 9d3c cc4d d73c dc81 ba3d 991c 1cbd
00000030: 3ee3 cf3d 3e87 15be f795 40bc 8aac 493d
00000040: 2999 393e 14a4 183e 4201 073e 1dcf d2bc
00000050: 7480 3ebe 0e63 063e 668f 05be 9548 a7bd
00000060: e8dc d5bd 2e6d 093e dc6c 30be 110d 6ebd
00000070: 4512 5a3d 2aba fbbd de1b 8fbc 4b0a 95bd
00000080: 3136 0b3e d1a4 b53d 0e9f fd3d 9b50 00bd
00000090: dcce 833d 2022 79be 03c4 9c3d af4b cf3d
000000a0: d723 1dbd af26 acba b67a 0a3e dc8c 52bd
000000b0: 1e89 2b3e 486c 0ebc 9066 0bbd fa32 c83d
000000c0: 0c29 b93d 73b4 cebc 50a3 18bc f9ed 17be
000000d0: 067a a93d b653 d9bc 758c 2c3e 7cef 303e
000000e0: ebed f23d 2e9c 0bbe babb 1d3e 853d 313e
000000f0: a8a2 153e d3bc 0c3e 3868 debb b049 6d3c
00000100: c571 24bc ee32 ac3d cb52 0dbe d2b0 44be
00000110: fa56 923d 3ad0 06be ff08 34bd 1d9b 85bd
00000120: c42b 7c3c 9bb2 24be f667 8c3d 6048 48be
00000130: 96ee b63b 0c8f d8bd b7b7 eebd 1ac3 783d
00000140: 85f5 ddbc 8d03 8f3d 76dd a63d 5f37 023e
00000150: 2e3a 0b3e 3530 24bd 3580 383d c05f fc3d
00000160: 78b6 193d f4d3 82bc f593 273d 377b fc3d
00000170: d3be d03d a568 35bd eb8b a3bb c29d 163d
00000180: 8a4d 02be 3ffd 083e c664 403e 391c a33d
00000190: cd8e 083c fd31 013e 3a47 eabd 0294 66bd
000001a0: 568d e33c 9fc8 afbc 9535 bbbd 76bf a53a
000001b0: 7e03 2fbd 0a08 37bd c675 f3bd 4bb0 09be
000001c0: 8634 2f3e b2bc cbbd 2655 263d a373 42be
000001d0: 9cb7 d6bc 1808 97bd 38ae b9bd 2b19 18be
000001e0: 998e 053e adf2 47bd 0e57 edbd 2dc9 32be
000001f0: e14d 0abd 3d5a 5d3e 7a5e cabd 6ccb ddbd
00000200: 9c6a 88bd 177d 0dbe 8648 423e 0121 993d
00000210: 6cd2 f93d 6409 05be 4f74 2ebc 1892 1ebd
00000220: 7158 10be ef9b 0cbd fd68 f03d b7ec b7ba
00000230: af38 d9bd 9b8f 48be 43f7 e5bd 525d e43d
00000240: ed43 87bd 4da6 fcbd 2e84 2b3e 8191 5ebc
00000250: c306 1bbe c468 413d b732 efbd 39a6 263d
00000260: d7a2 3fbe a6c8 403e 9455 bbbd 6e57 373d
00000270: 30f4 ae3d 78ce 3bbe 1d7d c13c 51de e4bb
00000280: 12e0 d13d 0c82 cc3b 87b6 1dbe 4236 ddbd
00000290: 4cac 05be 07a4 13bd 8a43 20be 86c3 87bd
000002a0: 8803 1b3e d363 c1bd c294 c83d 5c79 b13a
000002b0: 63ee 2b3e ad14 303e 11d1 a1bd bcee a33d
000002c0: 2004 9ebd fa13 223e 6bae 083d 41b8 193e
000002d0: 2ace 043e 5cb8 22be 0436 b4bd 6d52 fbbd
000002e0: 4c54 e7bd 0b03 6a3d 7dfc 1e3e cc5d 58bd
000002f0: 45ae 83bd 341f 143e f462 5cbe f066 4f3b
00000300: 7d20 033e 6f0b adbd 085a bcba 2d2b 22bd
00000310: a4bf 0b3e 22b2 913d d485 a5bd 7c52 063e
00000320: c90a 153d c9a4 1bbe 57f4 dd3c ae71 b93d
00000330: 0094 febd 6de3 fc3c ee6d 22be 745e 8f3b
00000340: 7031 4bbe 4540 e83d 67f6 fd3d 048b 513e
00000350: f0d2 283e 96f4 a9bd 548c 073e fa99 0bbe
00000360: 487c 9fbd 9e88 17bc 30a5 0c3e e23a 09be
00000370: d84f 2dbe 0049 b63d 7ce5 443d 7817 043e
00000380: d7d3 0b3e 6551 dabc 9f93 2b3d 057c 213d
00000390: 37cf bc3d 36c7 2ebe 458e bb3d 131c 1bbd
000003a0: cb0f 1a3e ec06 7f3d 91d7 593d 2afc 973c
000003b0: c22b e5bd 7991 0ebe 0ee3 13be 1adb 24be
000003c0: 4127 8cbd a466 5a3d 28a1 c93d 0d12 993d
000003d0: 7a46 393d 40d7 8abd 6660 91bd 0415 08be
000003e0: 4ab3 10be 878f eb3c 14c5 173e a92a 103e
000003f0: e15a a9bd 7cf0 a5bd 4606 683d ecd5 2ebe

layer2.0.bn2.weight f4 [10]
0.9661207 0.9840526 0.9742898 0.9429869 0.9832804 1.0045785 0.9738206 1.0288011
0.9344313 1.0144035
00000000: b053 773f dfea 7b3f 0e6b 793f 9767 713f
00000010: 44b8 7b3f 0796 803f 4f4c 793f c1af 833f
00000020: e436 6f3f f9d7 813f

layer2.0.bn2.bias f4 [10]
0.009021259 -0.0069700507 0.04364583 0.043920323 0.008538548 0.035998706 0.025897903 0.013643749
-0.016904555 0.025271006
00000000: e7cd 133c 0665 e4bb f8c5 323d cce5 333d
00000010: 44e5 0b3c 6173 133d d727 d43c 088a 5f3c
00000020: 6c7b 8abc 2405 cf3c

layer2.0.bn2.running_mean f4 [10]
-0.017651657 0.26440924 -0.017931296 -0.11110449 -0.2025052 -0.005398896 -0.09487491 0.052542638
-0.11462622 0.010974251
00000000: 359a 90bc a660 873e a7e4 92bc c08a e3bd
00000010: 865d 4fbe 39e9 b0bb c74d c2bd f336 573d
00000020: 27c1 eabd 58cd 333c

layer2.0.bn2.running_var f4 [10]
0.090791956 0.07558822 0.13191684 0.0645466 0.11461334 0.27164942 0.12487417 0.3040614
0.20682056 0.12040471
00000000: 22f1 b93d ffcd 9a3d 3515 073e 0231 843d
00000010: 66ba ea3d a215 8b3e 07be ff3d f0ad 9b3e
00000020: c5c8 533e bf96 f63d

layer2.0.se.fc.0.weight f4 [2, 10]
-0.27520046 -0.027178362 -0.25253725 -0.10002929 -0.25080627 -0.25955877 0.22105055 0.11102328
-0.100951634 0.18096589 -0.1547412 -0.1267415 -0.08744415 0.2332382 0.10940155 -0.12432612
-0.1449978 -0.2622924 -0.23393205 0.1334714
00000000: 13e7 8cbe 28a5 debc 904c 81be 28dc ccbd
00000010: ae69 80be e3e4 84be 135b 623e 2c60 e33d
00000020: bbbf cebd 1f4f 393e 7a74 1ebe 86c8 01be
00000030: eb15 b3bd ffd5 6e3e eb0d e03d b19e febd
00000040: 4e7a 14be 304b 86be e28b 6fbe baac 083e

layer2.0.se.fc.2.weight f4 [10, 2]
0.06337466 -0.0711113 0.33178043 -0.20935847 -0.10998369 -0.100650445 0.4515832 -0.5894721
0.11030183 -0.17833528 0.37495568 -0.3732523 0.5840484 -0.21296543 -0.38417262 0.16160494
-0.34571528 0.59012586 -0.0636171 0.5943659
00000000: 93ca 813d cda2 91bd 20df a93e 1162 56be
00000010: 213f e1bd d221 cebd ea35 e73e a5e7 16bf
00000020: ede5 e13d 869d 36be 31fa bf3e ed1a bfbe
00000030: 3284 153f 9c13 5abe 46b2 c4be c47b 253e
00000040: 9801 b1be 7d12 173f af49 82bd 5d28 183f

layer2.0.shortcut.0.weight f4 [10, 5, 1]
0.3715485 -0.04747349 -0.043718524 -0.19258983 -0.17450452 -0.39703226 -0.041446563 0.04284278
0.42191234 0.13654357 -0.32000396 -0.11353255 -0.2669396 0.5226781 0.27324286 0.06286705
-0.050203677 0.09601125 -0.31273824 0.36452276 0.11903304 0.2837003 0.3752055 -0.3190993
-0.0026325667 0.020644035 0.19408455 -0.04361147 -0.35419518 0.08247432 0.036617715 0.42601892
-0.12793835 0.15031822 -0.14576915 -0.27542517 -0.018588252 0.010591883 0.09872561 0.0035028937
0.29001784 -0.24824522 0.009536175 0.049920518 0.41043174 -0.23918569 -0.32761085 -0.15492012
-0.317912 -0.18739474
00000000: 9b3b be3e 9073 42bd 3212 33bd 4536 45be
00000010: 50b1 32be d047 cbbe dfc3 29bd e97b 2f3d
00000020: e504 d83e 14d2 0b3e 8fd7 a3be c183 e8bd
00000030: 4fac 88be 3bce 053f 7de6 8b3e 71c0 803d
00000040: 5fa2 4dbd 8ca1 c43d 3a1f a0be baa2 ba3e
00000050: 98c7 f33d 2a41 913e ef1a c03e fc60 a3be
00000060: 2487 2cbb ae1d a93c 1abe 463e f1a1 32bd
00000070: 1259 b5be 4ce8 a83d 75fc 153d 271f da3e
00000080: 4502 03be 05ed 193e 8244 15be 8704 8dbe
00000090: 6446 98bc 9489 2d3c a730 ca3d ce90 653b
000000a0: 387d 943e ff33 7ebe 9e3d 1c3c 7579 4c3d
000000b0: 1c24 d23e 18ed 74be 9cbc a7be 61a3 1ebe
000000c0: 5dc5 a2be 68e4 3fbe

layer2.0.shortcut.1.weight f4 [10]
0.9996317 0.98897076 1.035651 1.0202153 0.96746176 1.0098776 1.0147967 0.9956279
1.0016949 1.0183418
00000000: dde7 7f3f 302d 7d3f 3690 843f 6a96 823f
00000010: 93ab 773f ab43 813f dce4 813f 78e1 7e3f
00000020: 8a37 803f 0659 823f

layer2.0.shortcut.1.bias f4 [10]
0.008451177 -0.0057892236 0.038277697 0.043920267 0.0070021 0.036104385 0.029920718 0.018141245
-0.014259025 0.028206712
00000000: ce76 0a3c 87b3 bdbb 13c9 1c3d bde5 333d
00000010: df71 e53b 31e2 133d 4b1c f53c f39c 943c
00000020: b09e 69bc c311 e73c

layer2.0.shortcut.1.running_mean f4 [10]
0.094691426 -0.1215743 -0.3161792 0.24391574 0.40819415 0.0013382832 -0.13691418 -0.13547221
0.30101866 -0.344458
00000000: 94ed c13d f2fb f8bd 3de2 a1be 0cc5 793e
00000010: d3fe d03e 5569 af3a 3b33 0cbe 3ab9 0abe
00000020: 1e1f 9a3e cd5c b0be

layer2.0.shortcut.1.running_var f4 [10]
0.06412215 0.10317048 0.12971593 0.05527294 0.12479615 0.018973686 0.04190028 0.039606743
0.07255619 0.06564877
00000000: 7952 833d 0b4b d33d 41d4 043e e165 623d
00000010: 2095 ff3d b46e 9b3c a19f 2b3d ae3a 223d
00000020: 5798 943d dd72 863d

layer2.1.conv1.weight f4 [10, 10, 3]
-0.033239163 0.015140079 0.10811626 0.06748916 0.040473174 -0.15118316 -0.12793684 -0.084485315
-0.1363423 0.060439702 -0.06995327 0.007322401 -0.08856449 -0.09690982 0.14959894 0.023874309
0.044560585 -0.13941042 0.04347603 -0.05868299 0.018507944 0.15039593 0.07147992 0.18850774
-0.0627151 -0.055347368 0.14077461 -0.08884326 0.0028609766 0.18872316 0.05761009 -0.08732419
-0.14895068 -0.09579778 0.053478513 -0.010332398 0.019364502 -0.11017877 0.16675675 -0.120962605
-0.06077213 0.14962137 -0.1255741 0.004392876 -0.04211057 0.0041629267 -0.1589623 -0.03215382
0.0050019864 0.028761413 0.12952137 -0.16579472 0.14683628 -0.10993499 -0.1451716 0.042462226
-0.16535313 0.0669361 -0.057487924 0.066946305 -0.09341624 -0.027731886 -0.10232475 0.03816749
-0.016572736 0.04932434 0.045908757 0.04550436 0.051109087 -0.01861272 -0.015117426 -0.1557566
-0.031811908 0.13097925 0.037601933 -0.003927211 -0.12728135 -0.16917378 -0.15565065 0.06868394
-0.09303563 -0.06020662 -0.10860493 0.028790308 0.15250143 -0.112103894 -0.0994988 0.09518015
-0.025769515 0.0062043783 -0.04581097 -0.11752385 -0.15470013 0.082948014 -0.12692751 0.055147227
0.11306995 -0.1743499 0.107125565 -0.08349825 -0.020057304 -0.04726803 -0.051954765 0.18601969
0.19556014 0.010990789 0.14269394 0.006920451 -0.1140364 0.08409308 0.16574839 0.11506292
0.06303405 -0.021598252 -0.0077756 -0.18257633 -0.012317394 -0.032141324 0.12970872 0.16178322
-0.07011245 -0.00070572493 -0.037139446 0.018618412 -0.18240142 -0.16640489 -0.108823046 0.107399575
-0.12172651 0.13829398 0.072367474 0.10123139 0.03719472 0.09328366 -0.082736276 -0.15273316
-0.064013906 0.17453761 -0.13044839 0.216869 -0.03844375 0.04830764 -0.009516507 -0.071276836
0.01795153 -0.21815288 0.10699129 0.14068857 0.03429306 -0.017415924 0.1875589 0.16400933
0.0058505153 -0.06943714 0.1106927 0.11440485 -0.12046982 0.15206864 0.10054708 0.09260098
0.01441312 0.056822967 0.116562925 0.11887232 -0.13542628 -0.16048296 -0.05835501 0.124932095
0.09156837 0.06776191 -0.11735578 -0.09809908 0.21019527 -0.117277 -0.0735506 0.13964243
0.15829508 0.14261381 -0.09332118 -0.020459067 -0.0045563816 -0.15240718 -0.17160633 -0.04333874
0.08231971 0.011258333 0.04110069 0.022005018 0.046615224 -0.0067514866 0.17357428 0.0039382987
0.09348095 0.1410549 -0.14554724 -0.016882742 0.114451766 0.11084725 -0.032257136 0.05757909
0.033378582 0.1145249 -0.076358475 -0.05492428 0.16200303 -0.12083238 0.16417208 0.13358377
0.1696692 0.007051072 0.14829652 -0.048581686 -0.043878738 0.0020205737 0.19719994 0.077126406
-0.068086945 -0.015150395 0.16006035 0.024943499 0.10491493 0.08419767 -0.07053022 -0.12869631
0.032601878 -0.13326111 -0.045109835 -0.15980637 -0.008724569 0.029156754 -0.16913962 -0.14643006
0.10140676 0.18082397 -0.004361834 -0.16651472 0.10861804 -0.1400826 0.15546983 -0.17275529
0.019406002 0.17380613 0.09717715 0.17690437 -0.09762539 0.04378008 0.121115625 -0.025876688
0.025887476 -0.029294027 -0.07695893 0.13853593 -0.08697417 -0.093766 0.046582688 -0.16240107
00000000: ca25 08bd 180e 783c 0f6c dd3d c237 8a3d
00000010: 33c7 253d c2cf 1abe e001 03be a306 adbd
00000020: 519d 0bbe 9f8f 773d a943 8fbd c0f0 ef3b
00000030: 4d61 b5bd a878 c6bd 7730 193e 0e94 c33c
00000040: 2985 363d 9bc1 0ebe ec13 323d 935d 70bd
00000050: f99d 973c 6401 1a3e 1064 923d 2c08 413e
00000060: c670 80bd ecb3 62bd 3827 103e 75f3 b5bd
00000070: 397f 3b3b a540 413e 8ff8 6b3d 06d7 b2bd
00000080: 8786 18be a031 c4bd 490c 5b3d 3849 29bc
00000090: 4ea2 9e3c 68a5 e1bd 48c2 2a3e 3ebb f7bd
000000a0: 32ec 78bd 5836 193e 7f96 00be 1df2 8f3b
000000b0: 227c 2cbd 2969 883b 03c7 22be b9b3 03bd
000000c0: b4e7 a33b 0e9d eb3c 40a1 043e 17c6 29be
000000d0: 405c 163e 9925 e1bd dda7 14be dfec 2d3d
000000e0: 5552 29be cb15 893d 7578 6bbd 251b 893d
000000f0: 0351 bfbd fb2d e3bc a38f d1bd 8455 1c3d
00000100: 8cc3 87bc 5208 4a3d d20a 3c3d c862 3a3d
00000110: c357 513d b479 98bc 15af 77bc a87e 1fbe
00000120: 344d 02bd 6d1f 063e 7c04 1a3d d5af 80bb
00000130: 0b56 02be e43b 2dbe e262 1fbe 2aaa 8c3d
00000140: 7789 bebd 379b 76bd 436c debd a7d9 eb3c
00000150: 5629 1c3e ba96 e5bd 07c6 cbbd cfed c23d
00000160: 971a d3bc 194e cb3b 49a4 3bbd 58b0 f0bd
00000170: b669 1ebe a6e0 a93d 49f9 01be 0fe2 613d
00000180: 3891 e73d c888 32be a664 db3d 2101 abbd
00000190: 374f a4bc 1f9c 41bd 85ce 54bd f27b 3e3e
000001a0: eb40 483e b612 343c 5c1e 123e f3c4 e23b
000001b0: eb8b e9bd fe38 ac3d f2b9 293e 1ca6 eb3d
000001c0: ff17 813d d1ee b0bc 76ca febb 4af5 3abe
000001d0: e5ce 49bc 9fa6 03bd 5dd2 043e 80aa 253e
000001e0: 1e97 8fbd 6600 39ba 881f 18bd a485 983c
000001f0: 70c7 3abe 0b66 2abe 9ede debd 4ff4 db3d
00000200: c04b f9bd f09c 0d3e 6635 943d 6752 cf3d
00000210: 7e59 183d 810b bf3d a371 a9bd 1566 1cbe
00000220: b919 83bd fdb9 323e 4394 05be e812 5e3e
00000230: 3277 1dbd 3bde 453d 20eb 1bbc 97f9 91bd
00000240: 160f 933c 7863 5fbe 401e db3d aa10 103e
00000250: e176 0c3d d7ab 8ebc 710f 403e 10f2 273e
00000260: aeb5 bf3b 0f35 8ebd dbb2 e23d 174d ea3d
00000270: e2b8 f6bd e2b7 1b3e a1eb cd3d 95a5 bd3d
00000280: 0225 6c3c 33bf 683d 8bb8 ee3d 5573 f33d
00000290: 30ad 0abe a555 24be aa05 6fbd 66dc ff3d
000002a0: 3388 bb3d c2c6 8a3d 3a58 f0bd 2ce8 c8bd
000002b0: 6e3d 573e ec2e f0bd b2a1 96bd 6dfe 0e3e
000002c0: 1b18 223e 5b09 123e 2d1f bfbd c699 a7bc
000002d0: b34d 95bb a110 1cbe 92b9 2fbe f683 31bd
000002e0: 3c97 a83d df74 383c 3259 283d de43 b43c
000002f0: 9bef 3e3d 933b ddbb 75bd 313e d80c 813b
00000300: f172 bf3d b270 103e 560a 15be ad4d 8abc
00000310: b065 ea3d e203 e33d 0f20 04bd 0dd8 6b3d
00000320: fbb7 083d 088c ea3d d561 9cbd 48f8 60bd
00000330: 1fe4 253e f876 f7bd ba1c 283e 2fca 083e
00000340: c3bd 2d3e ae0c e73b 0bdb 173e 97fd 46bd
00000350: 31ba 33bd 9a6b 043b c8ee 493e 73f4 9d3d
00000360: 2b71 8bbd 5d39 78bc dce6 233e 4f56 cc3c
00000370: a4dd d63d d46f ac3d 2672 90bd f7c8 03be
00000380: 8c89 053d 9a75 08be 17c5 38bd 48a4 23be
00000390: 7ff1 0ebc 25da ee3c f032 2dbe c3f1 15be
000003a0: 59ae cf3d eb29 393e b7ed 8ebb d682 2abe
000003b0: 2373 de3d d071 0fbe 7c33 1f3e c3e6 30be
000003c0: 56f9 9e3c 3cfa 313e d004 c73d 6b26 353e
000003d0: d2ef c7bd be52 333d 780b f83d 59fb d3bc
000003e0: f911 d43c 07fa efbc a59c 9dbd 5ddc 0d3e
000003f0: 831f b2bd 6308 c0bd 7dcd 3e3d 774c 26be

layer2.1.bn1.weight f4 [10]
1.0492746 0.95901686 1.0192423 0.95252204 1.0141838 0.9669349 1.0146663 0.96273065
1.0316718 0.99088645
00000000: a14e 863f 2182 753f 8876 823f 7cd8 733f
00000010: c6d0 813f 0c89 773f 96e0 813f 8475 763f
00000020: d20d 843f bcaa 7d3f

layer2.1.bn1.bias f4 [10]
0.05258739 -0.0030093214 0.00781544 0.0033790017 -0.0027192682 -0.009451166 0.027292604 -0.026997685
0.05357641 0.02755611
00000000: e065 573d 0938 45bb 550c 003c 3e72 5d3b
00000010: c035 32bb 10d9 1abc bd94 df3c 402a ddbc
00000020: f072 5b3d 5abd e13c

layer2.1.bn1.running_mean f4 [10]
0.10542981 -0.24194288 -0.2615282 0.13471659 0.010799447 0.28898588 0.31015733 -0.061833754
-0.057605322 -0.1372643
00000000: 96eb d73d e0bf 77be 06e7 85be 25f3 093e
00000010: 2af0 303c f5f5 933e f1cc 9e3e 6445 7dbd
00000020: 8ff3 6bbd 038f 0cbe

layer2.1.bn1.running_var f4 [10]
0.07835183 0.26307356 0.15079781 0.20238207 0.1311764 0.10345513 0.09277198 0.25409016
0.1145371 0.35135266
00000000: ed76 a03d 94b1 863e be6a 1a3e 3f3d 4f3e
00000010: 1b53 063e 48e0 d33d 3cff bd3d 1b18 823e
00000020: 6d92 ea3d 7fe4 b33e

layer2.1.conv2.weight f4 [10, 10, 3]
-0.11641906 0.07653178 -0.13708311 0.09612972 -0.0005321813 0.12046338 0.06911918 0.124721855
-0.1337198 -0.057200104 -0.109568544 -0.03549896 -0.077962205 0.18807414 -0.109174214 -0.0901745
-0.018137598 -0.052418146 -0.02271153 0.04524357 -0.034138534 -0.061267186 -0.097889245 -0.07445391
-0.039583758 0.0029010961 -0.027978187 0.15951559 -0.11365199 -0.08140856 0.087215684 -0.009516398
-0.080218606 0.12799488 0.13520057 -0.13192701 0.08198607 0.15069172 0.07966626 0.06531776
-0.029378707 -0.09836198 -0.02962062 -0.059893038 0.09811462 0.07717848 -0.012380969 -0.09181476
-0.053347856 -0.06195594 0.09359913 -0.08878125 0.06578032 -0.14756875 0.06912793 0.10037314
-0.039001886 0.16926558 0.05794689 0.07792185 -0.2210265 0.0029238055 -0.038961776 -0.12198228
-0.13656671 -0.110285535 -0.056525983 0.018838666 -0.11817796 0.01505002 0.09366795 -0.16772723
0.012207514 0.14734015 0.007502923 -0.04142298 0.01865193 0.044236302 -0.18888281 -0.14645804
-0.0065721544 0.04862982 0.079156205 0.08005075 -0.032770947 -0.037278272 -0.14553623 0.116118155
0.13980795 -0.032091264 -0.15230666 -0.095904246 0.11177804 -0.07313092 0.015382628 -0.14408201
-0.024970941 -0.033712726 -0.060885496 -0.14816459 0.11918899 -0.031914618 -0.094017826 -0.018572208
-0.10505168 0.069974236 -0.018781226 0.04169139 -0.0019954643 -0.10191266 -0.07958384 0.12807295
0.16059914 -0.13402604 -0.16325407 0.19674493 -0.037283693 -0.16174036 -0.21557717 -0.075451694
0.07823324 0.07194439 -0.13240942 0.078352146 -0.17545791 -0.0669947 0.076936185 -0.15499757
-0.04309261 -0.0119484775 0.051925622 -0.027583629 -0.12475664 0.05623489 0.08952751 0.15708117
0.15431824 -0.13226648 0.06578417 0.024632698 0.15392837 -0.002081169 0.018230796 -0.10593609
-0.03006799 0.09321793 0.04218567 -0.17872886 -0.024274016 -0.084142566 -0.19929871 -0.24521352
-0.002544003 -0.20462859 -0.19043621 -0.0004742148 -0.17367814 -0.09351789 -0.2032071 -0.059772346
0.006479976 -0.15353054 -0.11768395 -0.059345543 -0.010414023 0.117256895 0.09519456 0.14186476
-0.03630425 -0.11253282 0.1394211 -0.10192839 0.13475141 -0.1266747 -0.011877243 0.09972595
-0.09276664 -0.12731335 -0.084712215 -0.19420531 -0.13034812 -0.05035922 -0.1703213 -0.025856115
0.12132044 0.10638286 0.029503373 0.12436358 0.09019889 0.12827983 -0.14215042 0.13465689
0.08635743 0.19636782 0.11605776 -0.17917472 0.098387614 0.05328884 0.04104483 -0.18974613
0.0032075935 0.062189538 -0.04813417 -0.012729499 0.061301373 -0.2025951 -0.07400893 -0.096023485
0.0050587864 0.12665918 0.0713532 -0.15331672 0.038495988 0.06806149 0.14063987 0.05250187
-0.06744387 0.23754027 0.021563005 0.13068403 0.07694748 0.11875282 -0.067400984 0.031104907
-0.15390936 -0.04765678 -0.08555214 0.10316159 -0.00905691 0.03479733 -0.13542017 0.096926205
0.1178041 0.12715717 0.06575582 0.022344952 0.11560598 0.121814564 0.036387995 -0.16951391
0.092049636 -0.0196283 -0.09082449 -0.09820612 -0.05906132 0.09004995 -0.06914745 0.072072126
-0.117463425 -0.08562897 0.015879229 -0.045754854 -0.13602005 -0.015197872 0.047852963 0.10054831
00000000: 1e6d eebd b2bc 9c3d 845f 0cbe a9df c43d
00000010: 1582 0bba 81b5 f63d 5b8e 8d3d 2c6e ff3d
00000020: d8ed 08be a84a 6abd 7965 e0bd 5c67 11bd
00000030: a6aa 9fbd 8296 403e bb96 dfbd 69ad b8bd
00000040: 4d95 94bc 69b4 56bd 880d babc 5251 393d
00000050: d9d4 0bbd 4df3 7abd 287a c8bd 4b7b 98bd
00000060: 9422 22bd 5120 3e3b 8332 e5bc 0e58 233e
00000070: 60c2 e8bd 88b9 a6bd 239e b23d abea 1bbc
00000080: a749 a4bd 1711 033e 0572 0a3e e017 07be
00000090: 50e8 a73d ee4e 1a3e 1028 a33d 51c5 853d
000000a0: 9dab f0bc 0172 c9bd f1a6 f2bc 6752 75bd
000000b0: 51f0 c83d c00f 9e3d 8cd9 4abc 6009 bcbd
000000c0: 4883 5abd 83c5 7dbd e7b0 bf3d f2d2 b5bd
000000d0: d5b7 863d 431c 17be f292 8d3d 6f90 cd3d
000000e0: 71c0 1fbd f553 2d3e b859 6d3d 7e95 9f3d
000000f0: c554 62be 519d 3f3b 6296 1fbd d8d1 f9bd
00000100: 25d8 0bbe 62dd e1bd ca87 67bd 8c53 9a3c
00000110: 4907 f2bd 5c94 763c fbd4 bf3d b0c0 2bbe
00000120: 0602 483c 56e0 163e 14db f53b 25ab 29bd
00000130: efcb 983c 2031 353d 7f6a 41be 19f9 15be
00000140: 3a5b d7bb 1030 473d a61c a23d a6f1 a33d
00000150: d43a 06bd 1ab1 18bd 7307 15be 5bcf ed3d
00000160: d129 0f3e 2172 03bd 47f6 1bbe 7269 c4bd
00000170: e3eb e43d aac5 95bd 6b07 7c3c 3c8a 13be
00000180: dc8f ccbc 5b16 0abd 1263 79bd 75b8 17be
00000190: 5b19 f43d e7b8 02bd 6b8c c0bd be24 98bc
000001a0: 5625 d7bd a74e 8f3d 16db 99bc 97c4 2a3d
000001b0: 56c6 02bb 96b7 d0bd dafc a2bd 8e25 033e
000001c0: 1a74 243e 1f3e 09be 132c 27be 8177 493e
000001d0: c9b6 18bd 449f 25be 43c0 5cbe 6b86 9abd
000001e0: c038 a03d 9557 933d 5696 07be 1777 a03d
000001f0: 3dab 33be 8434 89bd b890 9d3d afb7 1ebe
00000200: e081 30bd 8cc3 43bc f6af 543d 10f7 e1bc
00000210: 6980 ffbd 8e56 663d 335a b73d e3d9 203e
00000220: 9a05 1e3e dd70 07be dab9 863d 83ca c93c
00000230: 669f 1d3e 3964 08bb c058 953c 05f5 d8bd
00000240: 2551 f6bc 0be9 be3d e2ca 2c3d b304 37be
00000250: 4dda c6bc f052 acbd f614 4cbe 4119 7bbe
00000260: 4ab9 26bb 288a 51be b601 43be 08a0 f8b9
00000270: afd8 31be 4f86 bfbd 8615 50be d9d3 74bd
00000280: fa55 d43b 1c37 1dbe 4804 f1bd 5014 73bd
00000290: 949f 2abc 6224 f03d 5ef5 c23d ff44 113e
000002a0: c4b3 14bd 9b77 e6bd 68c4 0e3e d5bf d0bd
000002b0: 46fc 093e 03b7 01be c598 42bc 1e3d cc3d
000002c0: 70fc bdbd 6e5e 02be 997d adbd c2dd 46be
000002d0: fa79 05be 7845 4ebd b568 2ebe 34d0 d3bc
000002e0: da76 f83d 42df d93d 0fb1 f13c 55b2 fe3d
000002f0: 32ba b83d ca5b 033e e18f 11be 7fe3 093e
00000300: 2adc b03d a514 493e b1af ed3d 9479 37be
00000310: 727f c93d 6645 5a3d a01e 283d cf4c 42be
00000320: 7d36 523b 75ba 7e3d 5628 45bd 638f 50bc
00000330: 2617 7b3d 1775 4fbe fe91 97bd f6a7 c4bd
00000340: 2dc4 a53b f2b2 013e a021 923d 0fff 1cbe
00000350: f8ad 1d3d d363 8b3d e603 103e 330c 573d
00000360: 0320 8abd c23d 733e e6a4 b03c 09d2 053e
00000370: a496 9d3d ae34 f33d 8709 8abd b8cf fe3c
00000380: 6a9a 1dbe c133 43bd f635 afbd 6246 d33d
00000390: 6f63 14bc a587 0e3d 96ab 0abe 3f81 c63d
000003a0: 4743 f13d 7d35 023e fdaa 863d c30c b73c
000003b0: d4c2 ec3d ea79 f93d 940b 153d 0e95 2dbe
000003c0: 8584 bc3d 87cb a0bc 3102 babd 4a20 c9bd
000003d0: 48ea 71bd 1c6c b83d 2e9d 8dbd 8d9a 933d
000003e0: aa90 f0bd 3e5e afbd 2815 823c 7169 3bbd
000003f0: d748 0bbe 7f00 79bc 7801 443d 46ec cd3d

layer2.1.bn2.weight f4 [10]
1.0189108 0.962878 1.0144241 0.9788592 1.0365896 0.97952205 0.9543735 0.99899125
0.9819705 0.9810707
00000000: ab6b 823f 2c7f 763f a6d8 813f 8496 7a3f
00000010: f8ae 843f f5c1 7a3f d251 743f e4bd 7f3f
00000020: 6b62 7b3f 7327 7b3f

layer2.1.bn2.bias f4 [10]
-0.013033263 -0.012671866 0.0432242 -0.010406079 0.030483577 0.029232655 0.050079152 0.009304973
-0.017258449 0.046912253
00000000: 7889 55bc a99d 4fbc dc0b 313d 427e 2abc
00000010: b2b8 f93c 5279 ef3c cc1f 4d3d e373 183c
00000020: 9761 8dbc 1027 403d

layer2.1.bn2.running_mean f4 [10]
-0.13774644 0.16078705 -0.19636509 -0.27636385 -0.028615603 -0.48234415 0.031751018 0.23112716
-0.2053911 -0.16233245
00000000: 670d 0dbe 5ca5 243e ee13 49be 907f 8dbe
00000010: 456b eabc d0f5 f6be 5b0d 023d 99ac 6c3e
00000020: 0b52 52be 7a3a 26be

layer2.1.bn2.running_var f4 [10]
0.09632323 0.10000675 0.040416386 0.12310423 0.23095112 0.780859 0.098369956 0.18377754
0.047629535 0.05660755
00000000: 1d45 c53d 57d0 cc3d a78b 253d 121e fc3d
00000010: 737e 6c3e 60e6 473f 3076 c93d 2e30 3c3e
00000020: 3017 433d 51dd 673d

layer2.1.se.fc.0.weight f4 [2, 10]
0.28397995 0.25776494 -0.12594424 0.13612418 0.31701165 -0.20366034 0.11034377 0.25669485
-0.35259154 -0.17645031 0.19566149 0.0090367235 -0.20619182 -0.16428724 0.28828043 -0.2233724
-0.04413943 -0.13668242 -0.030529963 0.1120511
00000000: d265 913e c4f9 833e 87f7 00be 2364 0b3e
00000010: 5a4f a23e 568c 50be eafb e13d 826d 833e
00000020: e186 b4be 64af 34be 7c5b 483e c40e 143c
00000030: f323 53be ea3a 28be 7e99 933e bcbb 64be
00000040: 8ccb 34bd 7af6 0bbe f919 fabc 0c7b e53d

layer2.1.se.fc.2.weight f4 [10, 2]
0.14976849 -0.35181996 0.3863237 0.40837735 -0.5052172 0.4689233 0.050090924 0.35634378
0.27803674 0.21617246 0.70627904 0.54486334 0.11526787 0.6084771 -0.5958041 0.4522994
0.30548087 -0.5261082 -0.10325813 0.43277457
00000000: e95c 193e bf21 b4be 38cc c53e d616 d13e
00000010: ea55 01bf b716 f03e 242c 4d3d b172 b63e
00000020: d55a 8e3e 505c 5d3e b4ce 343f 2a7c 0b3f
00000030: 9011 ec3d 28c5 1b3f 9e86 18bf c993 e73e
00000040: fd67 9c3e 07af 06bf 0079 d3bd a194 dd3e
