bid/third.ckpt (torch, 632337 bytes, 131 tensors)

layer1.0.conv1.weight f4 [5, 5, 3]
-0.17203976 0.050504185 -0.098820426 -0.07729606 -0.19231617 0.031658296 -0.002666571 -0.24549615
-0.01634603 -0.115877785 -0.08808618 0.049918752 0.23375283 0.2503697 0.17217244 -0.06019631
0.18395346 -0.094312124 0.12996921 0.06963701 0.2969777 -0.073666595 0.08702256 -0.037638906
-0.214998 0.24966119 -0.06451874 -0.03736579 0.17618042 0.09304642 -0.00766453 -0.2421503
-0.024705794 0.15352719 0.17383502 -0.16706748 -0.021167044 -0.1401573 0.0130395815 0.07519011
-0.19689402 0.042089414 0.22605242 -0.121128775 -0.14496352 -0.11014397 0.095298015 -0.17101547
0.1320079 0.10532134 -0.018163772 -0.005719212 0.0026254202 -0.20160739 0.1771271 -0.1785891
-0.11717391 0.06932178 0.22690402 -0.187149 -0.075862974 0.1557044 0.15696117 0.05197176
-0.22549021 -0.06691526 -0.1926867 0.051942356 0.06360399 -0.120146096 -0.04970117 0.17405047
-0.07661377 -0.10164094 0.08130636
00000000: 312b 30be 7add 4e3d 5d62 cabd 664d 9ebd
00000010: 88ee 44be 21ac 013d a3c1 2ebb 5863 7bbe
00000020: 1ce8 85bc 5551 edbd 8766 b4bd 9b77 4c3d
00000030: e75c 6f3e 7530 803e f94d 303e 6890 76bd
00000040: 4c5e 3c3e b726 c1bd a616 053e d99d 8e3d
00000050: 760d 983e 83de 96bd e238 b23d 412b 1abd
00000060: 7028 5cbe 2fa7 7f3e 6722 84bd df0c 19bd
00000070: a468 343e 1f8f be3d bd26 fbbb 40f6 77be
00000080: ce63 cabc 3b36 1d3e cf01 323e bd13 2bbe
00000090: 8266 adbc 6585 0fbe f8a3 553c 46fd 993d
000000a0: 969e 49be f365 2c3d 497a 673e 5d12 f8bd
000000b0: 5171 14be 2993 e1bd 9b2b c33d ae1e 2fbe
000000c0: 142d 073e b7b2 d73d 31cc 94bc 3a68 bbbb
000000d0: 3e0f 2c3b 2b72 4ebe ce60 353e 10e0 36be
000000e0: e0f8 efbd 94f8 8d3d 8759 683e fda3 3fbe
000000f0: 0c5e 9bbd f970 1f3e 6eba 203e 57e0 543d
00000100: e8e6 66be de0a 89bd aa4f 45be 82c1 543d
00000110: cf42 823d 280f f6bd 7493 4bbd 493a 323e
00000120: aee7 9cbd 2029 d0bd f383 a63d

layer1.0.bn1.weight f4 [5]
0.96730757 1.0026616 0.9987764 0.99483943 1.0141093
00000000: 78a1 773f 3757 803f cfaf 7f3f ccad 7e3f
00000010: 55ce 813f

layer1.0.bn1.bias f4 [5]
0.019858075 0.10172633 0.0163114 0.011298675 0.020345505
00000000: 67ad a23c e555 d03d 7c9f 853c 141e 393c
00000010: 9eab a63c

layer1.0.bn1.running_mean f4 [5]
-1.4989287 -0.08424473 -0.6386312 -0.6721156 0.4422888
00000000: e5dc bfbf 8088 acbd 567d 23bf c50f 2cbf
00000010: ad73 e23e

layer1.0.bn1.running_var f4 [5]
0.103611186 0.024485227 0.13486382 0.06600063 0.14037417
00000000: 1a32 d43d 3e95 c83c be19 0a3e 572b 873d
00000010: 3fbe 0f3e

layer1.0.conv2.weight f4 [5, 5, 3]
-0.036978945 0.24795714 0.11158726 0.21167816 0.022584543 0.1324122 -0.049889863 -0.15173474
0.07285939 -0.016795954 0.18581425 -0.135167 0.074881904 0.24899465 -0.22318031 0.21026057
-0.25175333 -0.068437405 -0.06493211 0.08382625 -0.08512369 0.14183708 -0.24051785 -0.08267634
0.121517606 -0.08810372 -0.00061533204 -0.11258713 -0.17413476 -0.2334076 -0.15703937 0.13704899
-0.06944515 0.077833444 0.24176516 -0.12546626 -0.08517421 0.022548258 -0.04389702 0.07401544
0.12510343 -0.06705751 0.18810047 -0.041934192 -0.1448821 -0.12507333 -0.031868402 0.23404524
-0.24294524 0.15198895 -0.026531782 -0.018462587 0.26948878 -0.03817198 0.0737744 0.20835765
-0.11999691 0.14079335 0.22902834 0.23587641 -0.12017519 0.22941892 -0.22860023 -0.08854605
-0.20797451 0.06254083 -0.21273296 0.15055466 0.06746995 0.006818997 0.098689154 -0.08463694
0.09233026 0.064704984 0.04040098
00000000: 3c77 17bd 7ae8 7d3e dd87 e43d 29c2 583e
00000010: 3803 b93c 1097 073e 5059 4cbd 5a60 1bbe
00000020: 4e37 953d ab97 89bc 1746 3e3e 3869 0abe
00000030: af5b 993d 74f8 7e3e 6189 64be 8c4e 573e
00000040: d0e5 80be e928 8cbd 20fb 84bd 19ad ab3d
00000050: 5455 aebd bd3d 113e 504a 76be 3752 a9bd
00000060: 39de f83d b96f b4bd 3c4e 21ba 1594 e6bd
00000070: 6250 32be 6702 6fbe eece 20be 9256 0c3e
00000080: 4239 8ebd 2467 9f3d 4991 773e 3a7a 00be
00000090: d16f aebd 20b7 b83c 5dcd 33bd 6895 973d
000000a0: 1d1b 003e 7355 89bd 699d 403e 30c3 2bbd
000000b0: f95b 14be 3913 00be 7188 02bd 8ea9 6f3e
000000c0: a3c6 78be fea2 1b3e 2e59 d9bc da3e 97bc
000000d0: 6ffa 893e 395a 1cbd 0817 973d b55b 553e
000000e0: f1c0 f5bd 222c 103e 6886 6a3e 9689 713e
000000f0: 691e f6bd cbec 6a3e 2e16 6abe a257 b5bd
00000100: 45f7 54be 6815 803d abd6 59be 002b 1a3e
00000110: af2d 8a3d e571 df3b 8a1d ca3d 2256 adbd
00000120: a617 bd3d 0c84 843d 7f7b 253d

layer1.0.bn2.weight f4 [5]
1.0043001 1.0767998 1.0610421 0.9995157 1.0072737
00000000: e88c 803f 93d4 893f 3ad0 873f 43e0 7f3f
00000010: 58ee 803f

layer1.0.bn2.bias f4 [5]
0.05571611 0.06441338 0.032853078 -0.013606861 0.02409
00000000: 9336 643d 2aeb 833d f390 063d 50ef 5ebc
00000010: 6458 c53c

layer1.0.bn2.running_mean f4 [5]
0.17168789 -0.2105917 0.05757451 0.23957422 -0.017893467
00000000: f3ce 2f3e 5aa5 57be 40d3 6b3d f252 753e
00000010: 5295 92bc

layer1.0.bn2.running_var f4 [5]
0.08334836 0.042172868 0.057018884 0.095958754 0.04657825
00000000: 8cb2 aa3d 75bd 2c3d a28c 693d 0686 c43d
00000010: d6c8 3e3d

layer1.0.se.fc.0.weight f4 [1, 5]
-0.2554973 -0.36092064 -0.056292057 0.2746615 -0.04090614
00000000: 8bd0 82be 97ca b8be 8092 66bd 6fa0 8c3e
00000010: 328d 27bd

layer1.0.se.fc.2.weight f4 [5, 1]
-0.0323354 -0.71711504 -0.9714 0.5032203 0.91204965
00000000: 2072 04bd da94 37bf acad 78bf 0cd3 003f
00000010: 167c 693f

layer1.0.shortcut.0.weight f4 [5, 5, 1]
0.4459351 0.073891446 0.31874797 -0.006823069 0.12347968 0.33358762 0.2531673 -0.34313256
0.045598123 0.40093607 -0.36698017 -0.33373553 -0.07034081 -0.0319484 0.19700235 -0.40101665
-0.06117454 -0.11546385 -0.3142387 0.19213833 0.12877846 -0.030739233 0.08789331 0.37544596
0.023954375
00000000: 9b51 e43e 6654 973d ef32 a33e 0d94 dfbb
00000010: eae2 fc3d ffcb aa3e 259f 813e 12af afbe
00000020: 19c5 3a3d 7e47 cd3e d3e4 bbbe 62df aabe
00000030: d80e 90bd 53dc 02bd fcba 493e 0e52 cdbe
00000040: 2892 7abd 5078 ecbd e5e3 a0be e9bf 443e
00000050: 80de 033e d8d0 fbbc 6801 b43d 743a c03e
00000060: f73b c43c

layer1.0.shortcut.1.weight f4 [5]
0.9977624 0.95107734 0.96691906 0.9903443 0.9796767
00000000: 5b6d 7f3f ce79 733f 0288 773f 3487 7d3f
00000010: 18cc 7a3f

layer1.0.shortcut.1.bias f4 [5]
0.04426022 0.04837862 0.029126603 0.012998468 0.028255012
00000000: 344a 353d a928 463d ea9a ee3c 87f7 543c
00000010: 0e77 e73c

layer1.0.shortcut.1.running_mean f4 [5]
1.1506332 0.10816454 -1.1960827 -1.3061785 0.47332424
00000000: f347 933f 5f85 dd3d 3d19 99bf db30 a7bf
00000010: 8e57 f23e

layer1.0.shortcut.1.running_var f4 [5]
0.33327875 0.37888628 0.2585473 0.3087356 0.07526641
00000000: 83a3 aa3e 62fd c13e 5060 843e 9812 9e3e
00000010: 4725 9a3d

layer1.1.conv1.weight f4 [5, 5, 3]
0.21602191 0.02194967 -0.1963158 0.21004014 -0.16262384 -0.23500457 0.091383636 0.10075792
-0.23382491 -0.112361155 0.21308064 0.16532132 -0.027838744 -0.25420305 0.045701537 -0.1096441
-0.19435331 0.2390064 -0.0075501353 -0.1795578 -0.10551192 0.1366796 -0.084959514 -0.26519254
-0.11605101 -0.21684776 -0.048072394 -0.21265003 -0.18847078 -0.2896484 0.10999033 -0.18005729
0.05728528 0.059179384 -0.15004168 -0.0043532285 0.14768304 -0.04336838 0.1737077 0.13383225
0.044651676 -0.17102413 -0.20541325 -0.02319434 -0.18473451 0.20926483 -0.0684292 0.065815605
-0.16315159 0.09423628 0.20809534 0.120956704 0.1746188 0.06191596 -0.110227115 -0.0683224
-0.17295386 0.16679147 -0.21150653 -0.22249205 0.049655475 -0.19504288 0.19909604 0.025542485
0.03369044 0.044658516 0.22414123 -0.07775125 -0.1988373 0.096232206 -0.09622647 -0.03815743
0.02192297 -0.01587114 0.09587439
00000000: d934 5d3e cbcf b33c 0207 49be c314 573e
00000010: dd86 26be 0aa5 70be 5827 bb3d 2b5a ce3d
00000020: cc6f 6fbe 9b1d e6bd d031 5a3e fe49 293e
00000030: 140e e4bc e726 82be 8931 3b3d 168d e0bd
00000040: 8e04 47be 18be 743e 2067 f7bb 00de 37be
00000050: a216 d8bd bdf5 0b3e 41ff adbd 51c7 87be
00000060: 27ac edbd 570d 5ebe 8fe7 44bd eec0 59be
00000070: 7cfe 40be cc4c 94be 9c42 e13d f060 38be
00000080: f8a3 6a3d 1566 723d 87a4 19be 87a5 8ebb
00000090: 393a 173e 0ba3 31bd 6ee0 313e 520b 093e
000000a0: ade4 363d f320 2fbe da57 52be 0e02 bebc
000000b0: 0b2b 3dbe 8549 563e 9c24 8cbd 55ca 863d
000000c0: 3611 27be f3fe c03d f216 553e 26b8 f73d
000000d0: 45cf 323e 979b 7d3d c1be e1bd 9dec 8bbd
000000e0: d11a 31be 62cb 2a3e 2b95 58be f5d4 63be
000000f0: 8a63 4b3d 52b9 47be d5df 4b3e 793e d13c
00000100: fdfe 093d d9eb 363d 4785 653e 0c3c 9fbd
00000110: 019c 4bbe 6415 c53d 6212 c5bd f74a 1cbd
00000120: cd97 b33c 3104 82bc cb59 c43d

layer1.1.bn1.weight f4 [5]
1.0185663 0.98002285 1.0078249 0.972335 1.0178447
00000000: 6160 823f c7e2 7a3f 6800 813f f2ea 783f
00000010: bc48 823f

layer1.1.bn1.bias f4 [5]
-0.027497701 0.012821087 0.015682485 0.039733738 0.03469843
00000000: dc42 e1bc 890f 523c 8e78 803c d8bf 223d
00000010: f11f 0e3d

layer1.1.bn1.running_mean f4 [5]
-0.0395659 -0.50984263 -0.11431315 -0.015897745 0.05133743
00000000: da0f 22bd 0c85 02bf 031d eabd fd3b 82bc
00000010: 3247 523d

layer1.1.bn1.running_var f4 [5]
0.17679797 0.23769896 0.20970443 0.10485391 0.054132547
00000000: 870a 353e 5b67 733e c2bc 563e a6bd d63d
00000010: 17ba 5d3d

layer1.1.conv2.weight f4 [5, 5, 3]
-0.060663316 -0.15465711 0.073015444 0.12666772 -0.19034415 -0.20710936 0.06512826 -0.055583544
-0.19869478 -0.21437004 0.0108576175 0.17340888 0.14975773 -0.15876438 0.115340866 0.10797361
0.16160224 0.14880134 0.059818488 0.123007946 -0.20555179 0.018433953 -0.26523808 0.11901522
0.23863043 0.13898456 -0.20103018 -0.0349175 0.012391904 -0.18589278 -0.22792746 0.06294492
-0.10313866 -0.08227009 -0.041102424 -0.09550482 -0.22647004 -0.049680214 -0.19923197 0.044469893
0.0013864229 -0.18858863 -0.11725759 0.0820267 0.07667136 0.053894993 -0.02792898 0.21348867
-0.028240643 0.11096547 0.048753675 -0.13988745 -0.08888344 -0.23968847 -0.15175365 -0.060481507
0.0823053 -0.18915033 0.00717243 0.22797215 0.07278316 0.008516143 -0.25345486 -0.026255287
0.022840835 -0.003146435 -0.16168615 -0.10581146 0.23603591 0.14088729 -0.22324258 0.20709316
-0.2119055 0.20299734 0.27327558
00000000: 197a 78bd 6f5e 1ebe 1f89 953d 2fb5 013e
00000010: 94e9 42be 7a14 54be f761 853d 92ab 63bd
00000020: a576 4bbe d283 5bbe 26e4 313c 1992 313e
00000030: 175a 193e 2193 22be d537 ec3d 4521 dd3d
00000040: 0f7b 253e 615f 183e 3b04 753d 97eb fb3d
00000050: 2b7c 52be cd02 973c 49cd 87be 40be f33d
00000060: 895b 743e f851 0e3e dbda 4dbe a705 0fbd
00000070: 6a07 4b3c ad5a 3ebe d165 69be 44e9 803d
00000080: 5d3a d3bd 397d a8bd 045b 28bd 0898 c3bd
00000090: c3e7 67be 7b7d 4bbd 7703 4cbe 1026 363d
000000a0: a2b8 b53a 611d 41be bf24 f0bd 9dfd a73d
000000b0: e005 9d3d ffc0 5c3d 51cb e4bc c69c 5a3e
000000c0: ec58 e7bc dd41 e33d efb1 473d a83e 0fbe
000000d0: 8508 b6bd e570 75be 4f65 1bbe 75bb 77bd
000000e0: ae8f a83d a0b0 41be b406 eb3b 8871 693e
000000f0: 560f 953d 4b87 0b3c d6c4 81be 5415 d7bc
00000100: b41c bb3c 6b34 4ebb 0e91 25be aeb3 d8bd
00000110: 66b3 713e c244 103e b499 64be 3b10 543e
00000120: c1fd 58be 89de 4f3e c7ea 8b3e

layer1.1.bn2.weight f4 [5]
1.0152076 1.0244962 0.98076 0.9851064 0.98951375
00000000: 53f2 813f b122 833f 1613 7b3f ef2f 7c3f
00000010: c650 7d3f

layer1.1.bn2.bias f4 [5]
0.032173857 0.08353684 0.006403264 0.0025660223 0.02348087
00000000: bcc8 033d 5d15 ab3d 79d2 d13b b62a 283b
00000010: f45a c03c

layer1.1.bn2.running_mean f4 [5]
-0.1165633 0.041570112 -0.24392343 -0.045369852 0.049326714
00000000: bdb8 eebd 6c45 2a3d 10c7 79be bdd5 39bd
00000010: cf0a 4a3d

layer1.1.bn2.running_var f4 [5]
0.13139406 0.11768715 0.18708436 0.040189497 0.096187025
00000000: 2a8c 063e f605 f13d 0b93 3f3e be9d 243d
00000010: b4fd c43d

layer1.1.se.fc.0.weight f4 [1, 5]
-0.06847801 0.33800578 0.21040912 -0.015388531 0.47418475
00000000: 333e 8cbd 180f ad3e 7d75 573e 2d20 7cbc
00000010: 58c8 f23e

layer1.1.se.fc.2.weight f4 [5, 1]
1.0162491 -0.81783706 -0.594425 -0.50864506 -0.2809729
00000000: 7314 823f c55d 51bf 3d2c 18bf 9036 02bf
00000010: aedb 8fbe

layer1.2.conv1.weight f4 [5, 5, 3]
-0.19250156 -0.106636 -0.02840783 -0.2839942 -0.01851085 -0.11829493 -0.1296181 -0.042632777
-0.22729349 -0.104812615 -0.10449457 -0.12899774 0.18832266 0.093007155 0.053595044 -0.20142739
0.066807896 0.15065566 -0.18668193 -0.002609237 0.14738742 0.012255601 -0.08276346 0.27159202
0.12602262 0.180664 -0.14605643 -0.06521201 -0.17605865 0.01980351 -0.23953068 -0.21167268
0.055264313 -0.21582949 0.2345151 0.020326529 0.07869817 0.07231063 0.10151386 -0.1588611
-0.029677223 0.19501396 -0.07186926 -0.010236677 0.065583654 -0.06370328 0.11613822 -0.16263318
-0.21136083 -0.2413623 -0.12525503 0.12521686 -0.12715785 0.21469249 -0.2089508 0.07102793
0.21331903 -0.15700856 -0.16359007 0.039132155 0.17145726 -0.1601503 0.17730825 -0.21291488
0.037190963 -0.02538695 -0.07993411 -0.15307297 -0.10053653 -0.20575386 0.16590627 -0.118864655
-0.15860292 -0.17342637 -0.11009103
00000000: 211f 45be fa63 dabd 8ab7 e8bc b067 91be
00000010: 11a4 97bc 9d44 f2bd 9bba 04be b59f 2ebd
00000020: a0bf 68be ffa7 d6bd 4001 d6bd fc17 04be
00000030: a8d7 403e 897a be3d 7a86 5b3d fb42 4ebe
00000040: 94d2 883d 7a45 1a3e 8c29 3fbe bcff 2abb
00000050: baec 163e b7cb 483c e47f a9bd 1c0e 8b3e
00000060: 130c 013e fcff 383e d18f 15be e08d 85bd
00000070: b848 34be f83a a23c 8847 75be b9c0 58be
00000080: d55c 623d 6802 5dbe ba24 703e d283 a63c
00000090: 822c a13d 9817 943d 80e6 cf3d 7cac 22be
000000a0: a61d f3bc bdb1 473e 3130 93bd bcb7 27bc
000000b0: b950 863d de76 82bd e0d9 ed3d 5089 26be
000000c0: f96e 58be ae27 77be db42 00be d938 003e
000000d0: ab35 02be 59d8 5b3e 33f7 55be 1777 913d
000000e0: 4e70 5a3e dac6 20be 2884 27be 0a49 203d
000000f0: 7e92 2f3e 71fe 23be 4b90 353e 5c06 5abe
00000100: 8d55 183d 4bf8 cfbc 7fb4 a3bd 29bf 1cbe
00000110: 19e6 cdbd 24b1 52be 55e3 293e 506f f3bd
00000120: ce68 22be af96 31be 6877 e1bd

layer1.2.bn1.weight f4 [5]
0.98610544 0.98774046 1.026682 0.9651038 0.9951646
00000000: 6871 7c3f 8fdc 7c3f 516a 833f 0b11 773f
00000010: 1bc3 7e3f

layer1.2.bn1.bias f4 [5]
0.029406443 0.031640537 -0.008576226 0.008011139 -0.0065096198
00000000: c8e5 f03c 8299 013d 4d83 0cbc 2741 033c
00000010: a64e d5bb

layer1.2.bn1.running_mean f4 [5]
-0.29480052 -0.02079463 -0.12690987 -0.32051155 -0.3101608
00000000: 18f0 96be 8059 aabc a9f4 01be 171a a4be
00000010: 65cd 9ebe

layer1.2.bn1.running_var f4 [5]
0.14441781 0.0953806 0.09984891 0.1916786 0.23647669
00000000: 43e2 133e e756 c33d 967d cc3d 6547 443e
00000010: f226 723e

layer1.2.conv2.weight f4 [5, 5, 3]
0.12023983 0.17634314 -0.08530944 -0.24594317 0.24282694 0.05096738 -0.21406312 -0.17915829
0.02654225 -0.20082714 0.124869086 -0.19884616 0.16627085 -0.168543 -0.15951352 -0.10790923
-0.07684845 -0.13642648 0.26244298 -0.1956706 0.21721718 -0.08062351 0.038760595 0.17501841
0.045327786 0.124073 -0.13686225 -0.112960555 0.14495508 0.012966905 0.20239823 -0.27212766
-0.20783211 0.07195363 -0.20351128 0.24470754 0.12629354 0.13182054 0.21758385 -0.041753367
0.011346768 -0.11624659 -0.1044289 0.11015796 -0.25708178 0.13072099 0.19838543 -0.022808
0.19251183 0.22545968 -0.20810696 -0.054608464 0.05306672 -0.16578683 -0.07195139 0.17612693
-0.048101947 -0.17146486 -0.061234087 0.017202651 0.09239811 0.04217292 -0.06797405 0.030886544
-0.05257622 0.03328877 -0.12519823 -0.01674832 -0.2122804 -0.13145676 0.12565055 -0.04203713
-0.10956596 0.24180509 0.036693636
00000000: 4d40 f63d 4c93 343e b7b6 aebd 87d8 7bbe
00000010: a0a7 783e 2cc3 503d 5d33 5bbe 4575 37be
00000020: 226f d93c a1a5 4dbe 5dbb ff3d 549e 4bbe
00000030: e842 2a3e 8996 2cbe 8357 23be 84ff dcbd
00000040: b862 9dbd 62b3 0bbe ed5e 863e e05d 48be
00000050: 2e6e 5e3e f01d a5bd 6ec3 1e3d 0738 333e
00000060: a1a9 393d fc19 fe3d 9e25 0cbe dd57 e7bd
00000070: 1b6f 143e 2473 543c 7b41 4f3e 5154 8bbe
00000080: f1d1 54be 6d5c 933d 4365 50be 9d94 7a3e
00000090: 1853 013e f7fb 063e 4dce 5e3e 9405 2bbd
000000a0: cbe7 393c b112 eebd d2de d5bd 7f9a e13d
000000b0: 39a0 83be b9db 053e 8d25 4b3e d8d7 babc
000000c0: d221 453e e7de 663e fe19 55be 20ad 5fbd
000000d0: 7d5c 593d 06c4 29be 405b 93bd 9e5a 343e
000000e0: 8c06 45bd 7c94 2fbe 98d0 7abd 93ec 8c3c
000000f0: 383b bd3d 83bd 2c3d fb35 8bbd c705 fd3c
00000100: 2a5a 57bd ce59 083d f733 00be c633 89bc
00000110: 0860 59be 9a9c 06be 8aaa 003e 202f 2cbd
00000120: 1e64 e0bd c19b 773e 114c 163d

layer1.2.bn2.weight f4 [5]
0.9951345 0.98370606 0.9585831 0.9904086 1.001258
00000000: 22c1 7e3f 29d4 7b3f b465 753f 6b8b 7d3f
00000010: 3929 803f

layer1.2.bn2.bias f4 [5]
0.01849221 0.07366877 -0.0017705631 0.03782081 0.029621044
00000000: fa7c 973c a7df 963d 3d12 e8ba fee9 1a3d
00000010: d5a7 f23c

layer1.2.bn2.running_mean f4 [5]
-0.13292944 0.036510102 -0.020543883 0.05931213 -0.04228464
00000000: a81e 08be 9e8b 153d a54b a8bc 47f1 723d
00000010: a932 2dbd

layer1.2.bn2.running_var f4 [5]
0.19928074 0.17439204 0.15835404 0.07433358 0.08129604
00000000: 4010 4c3e d493 323e 9027 223e 343c 983d
00000010: 8a7e a63d

layer1.2.se.fc.0.weight f4 [1, 5]
-0.021454053 0.40096733 0.17551112 -0.040733326 0.029237576
00000000: 69c0 afbc 974b cd3e 30b9 333e fdd7 26bd
00000010: a483 ef3c

layer1.2.se.fc.2.weight f4 [5, 1]
-0.8914933 -0.69781715 0.49878058 0.45197093 -0.074814685
00000000: e838 64bf 25a4 32bf 2b60 ff3e bc68 e73e
00000010: 7138 99bd

layer2.0.conv1.weight f4 [10, 5, 3]
-0.075752795 0.0497382 0.23672456 -0.024717763 -0.1169031 -0.23795922 -0.09538001 -0.20080033
-0.09112535 0.25530654 -0.26510683 0.17505911 -0.15345459 -0.18265986 0.17983976 0.04206427
0.09290571 -0.171097 -0.07752593 0.17322554 0.1737867 0.18972781 -0.08671618 0.045671944
0.10851564 0.110158436 -0.16928127 0.017940348 0.19319 -0.13627288 0.0032049373 0.181422
-0.08099482 0.085708104 0.13107646 -0.09320272 -0.21094707 -0.08783066 0.16559948 -0.064408995
-0.14983797 -0.096855275 0.11586867 0.18539849 0.025708592 -0.050043337 0.056983206 0.170385
-0.23146956 0.22869498 0.17206217 -0.12972727 -0.03225984 -0.018121062 0.16359954 0.10419928
0.13061887 0.21067698 -0.078372784 0.16383922 -0.074431665 0.22327885 0.14500602 0.08052361
0.09595449 0.10946887 0.22148718 0.15289253 -0.13828538 0.25458062 -0.21973474 -0.21840169
0.06037102 0.01822045 0.042705383 0.0030506763 0.14544056 -0.26098695 0.18577649 -0.09024094
0.22257043 0.0717037 -0.20488816 -0.035106592 -0.07501538 0.12621571 0.2837148 0.22585513
-0.1565682 0.038007542 0.11458066 0.24889012 -0.15136671 0.2384447 0.1692865 0.15581308
-0.11039647 0.1767606 -0.10850219 -0.07461337 -0.0065269493 0.2310981 0.24826764 0.17337151
0.049367137 0.09169118 0.15612262 -0.17073807 -0.024480104 -0.1006633 0.091105506 0.047562152
0.061738957 -0.07958078 0.13307883 0.014785812 -0.06449226 0.048797697 0.1680943 0.05241092
0.18759316 0.12661715 -0.20394406 0.082462154 -0.15696272 -0.28911945 0.19384308 -0.0056315744
-0.12949274 0.07293558 -0.04192673 -0.17234565 0.012790908 0.14622103 0.28759173 -0.13301827
0.03715445 0.11830775 -0.10116323 -0.10730805 -0.08681975 -0.24261448 0.08291041 0.19610459
-0.10030046 -0.07570119 -0.13186567 0.08656115 0.23060223 0.18533655
00000000: 4824 9bbd 48ba 4b3d ec67 723e e87c cabc
00000010: e46a efbd 95ab 73be 9856 c3bd 9a9e 4dbe
00000020: ed9f babd 8ab7 823e 15bc 87be b242 333e
00000030: 3323 1dbe 300b 3bbe ea27 383e 954b 2c3d
00000040: 5945 be3d 0d34 2fbe eac5 9ebd 0962 313e
00000050: 24f5 313e 0248 423e 4198 b1bd 8112 3b3d
00000060: 733d de3d bf9a e13d 1258 2dbe a3f7 923c
00000070: 99d3 453e 1e8b 0bbe ed09 523b b0c6 393e
00000080: 9de0 a5bd bb87 af3d e838 063e 11e1 bebd
00000090: 8202 58be 90e0 b3bd e992 293e dde8 83bd
000000a0: 206f 19be 0f5c c6bd 8e4c ed3d 1ad9 3d3e
000000b0: d39a d23c 3efa 4cbd 3967 693d 6879 2e3e
000000c0: 5b06 6dbe 042f 6a3e 1131 303e 3ad7 04be
000000d0: e522 04bd 9f72 94bc a386 273e 6f66 d53d
000000e0: f4c0 053e b5bb 573e e981 a0bd 78c5 273e
000000f0: a16f 98bd 36a3 643e 757c 143e 90e9 a43d
00000100: ca83 c43d 3731 e03d 89cd 623e dc8f 1c3e
00000110: af9a 0dbe 6458 823e 2502 61be b1a4 5fbe
00000120: 9a47 773d 0e43 953c d7eb 2e3d dbed 473b
00000130: 5fee 143e 15a0 85be 313c 3e3e 3ed0 b8bd
00000140: 81e9 633e 64d9 923d 34ce 51be eecb 0fbd
00000150: aaa1 99bd b13e 013e 1143 913e 9146 673e
00000160: 6a53 20be ccad 1b3d 44a9 ea3d 0ddd 7e3e
00000170: e0ff 1abe d92a 743e 7159 2d3e 778d 1f3e
00000180: 8b17 e2bd bb00 353e 6536 debd e5ce 98bd
00000190: 05e0 d5bb fba4 6c3e df39 7e3e 4d88 313e
000001a0: 3235 4a3d 96c8 bb3d 9cde 1f3e f6d5 2ebe
000001b0: 808a c8bc 8f28 cebd 8695 ba3d 88d0 423d
000001c0: fde1 7c3d 3ffb a2bd d145 083e 3140 723c
000001d0: 8514 84bd 18e0 473d ea20 2c3e d5ac 563d
000001e0: 6c18 403e eda7 013e b6d6 50be ebe1 a83d
000001f0: d6ba 20be 7707 94be cd7e 463e 1289 b8bb
00000200: bf99 04be 405f 953d 5dbb 2bbd 617b 30be
00000210: f590 513c f7ba 153e 393f 933e f135 08be
00000220: 442f 183d 554b f23d ab2e cfbd 53c4 dbbd
00000230: 8ece b1bd ee6f 78be efcc a93d a4cf 483e
00000240: 546a cdbd 3a09 9bbd cb07 07be f946 b13d
00000250: fe22 6c3e ddc8 3d3e

layer2.0.bn1.weight f4 [10]
0.97313553 1.0361813 0.9876952 1.00205 0.9730332 1.021288 1.0018352 0.98431504
0.98809075 1.0012124
00000000: 691f 793f 97a1 843f 98d9 7c3f 2d43 803f
00000010: b418 793f 91b9 823f 233c 803f 12fc 7b3f
00000020: 84f3 7c3f ba27 803f

layer2.0.bn1.bias f4 [10]
0.01945554 0.020193823 0.007689477 0.011677985 0.021345386 0.018904509 0.00026993713 -0.004958414
-0.03491845 0.014621075
00000000: 3a61 9f3c 846d a53c 02f8 fb3b 0555 3f3c
00000010: 85dc ae3c a1dd 9a3c 5986 8d39 317a a2bb
00000020: a606 0fbd 3c8d 6f3c

layer2.0.bn1.running_mean f4 [10]
-0.26966 0.1779514 0.08522482 0.4393486 0.20679453 -0.06969107 0.4876997 0.119137935
0.105101116 0.11279721
00000000: e010 8abe e438 363e 5a8a ae3d 4df2 e03e
00000010: f2c1 533e 31ba 8ebd c6b3 f93e 97fe f33d
00000020: 413f d73d 3902 e73d

layer2.0.bn1.running_var f4 [10]
0.31944948 0.12606294 0.1700418 0.28600436 0.083762296 0.26962093 0.26925182 0.11698588
0.2711608 0.3229909
00000000: e28e a33e a516 013e 701f 2e3e 2a6f 923e
00000010: 918b ab3d c10b 8a3e 60db 893e 4b96 ef3d
00000020: 97d5 8a3e 105f a53e

layer2.0.conv2.weight f4 [10, 10, 3]
-0.12149586 0.07638307 -0.13620152 0.025359638 0.18108511 0.02845658 0.059684325 0.13661185
0.15206479 0.021349052 -0.096406154 0.08505936 -0.11585269 0.17870085 -0.0941018 0.17970921
-0.091944754 0.12060867 0.18858081 -0.01944391 0.18151419 0.11346427 -0.019672912 -0.046314396
-0.00919076 -0.050974526 0.17994039 -0.038781766 -0.08541036 -0.02495773 0.0033859794 0.11229297
-0.07203252 0.18954243 -0.1763265 0.09847255 0.05219845 0.13842793 0.13974567 0.053074606
0.017922616 0.047297873 -0.12992255 -0.21157867 0.11204269 0.18689983 0.037566457 0.14014535
0.08021465 -0.14883263 -0.17405333 0.09815509 -0.10230614 -0.058527008 0.104045086 -0.1803558
-0.16920939 -0.0104069505 -0.20817173 -0.012986573 0.100349866 0.011412252 -0.068929225 -0.06411151
0.013449641 -0.003863435 -0.10653265 -0.085614644 -0.122653335 0.010730365 0.006572381 -0.19807865
0.18810555 -0.08327907 -0.014594381 -0.06281793 -0.097624585 -0.012720614 -0.017315688 -0.052079298
0.11912861 0.020828756 0.08714435 0.11702433 0.07738804 -0.08386767 -0.17973644 -0.13145876
-0.1415027 -0.06585268 0.025479756 -0.108315885 -0.15553463 0.102842 0.028708423 -0.16084655
-0.07839486 0.027128521 -0.07217431 -0.14755213 -0.0035718319 -0.10721823 0.10221229 0.16010271
0.030909041 -0.100707375 -0.03893488 -0.08796317 -0.11676223 0.10015045 -0.17327012 -0.11132008
-0.11945263 0.022715641 0.051391523 -0.12278612 0.11069217 -0.15990548 0.13067208 0.15562388
-0.15241522 0.009283061 0.1472077 0.059771847 -0.0673331 -0.19133222 0.14339224 -0.037183356
0.14189927 -0.18677984 -0.1430522 -0.09332416 0.08574999 0.11398803 -0.018317342 -0.13714398
0.05401257 -0.19869074 0.09307154 0.01117232 -0.086293854 -0.059547078 0.050244477 0.11217512
0.09337823 -0.18070802 0.06936222 0.09126706 0.18419413 -0.16345043 -0.12046264 0.105983905
-0.027212968 -0.056388035 0.07756809 0.12251684 -0.032844976 -0.13531937 -0.116237976 -0.19847192
-0.056975454 -0.053342246 0.14047807 0.06807687 -0.15277961 0.010616321 0.15527901 0.07273466
-0.10014323 0.083517924 -0.18499385 0.1889448 0.09934675 -0.0679391 -0.12356897 -0.055079672
0.0984869 -0.01316151 -0.16365136 0.124095716 -0.14920941 -0.024405362 0.045022417 0.10996386
-0.02826371 0.17254856 -0.15445103 -0.08682866 0.11549058 0.04921703 -0.16969757 -0.024543844
-0.16278347 0.008723622 -0.004953144 0.13610768 -0.093281485 -0.10729437 -0.112496294 -0.046619367
-0.08932561 0.073298655 0.08914762 0.044482656 -0.055939328 0.05353405 -0.14478898 -0.11720139
-0.09139829 -0.0041062757 -0.091631785 -0.15858528 -0.08427258 0.08403285 -0.011944625 0.12313317
-0.075342245 -0.081272826 -0.0817968 0.12405163 -0.10835736 -0.05785708 0.17721722 0.13483034
0.04970148 0.14858404 0.2095833 -0.106186315 -0.029093506 -0.10201711 0.011507505 -0.06966935
-0.06893869 -0.09982221 0.09566252 -0.1483776 -0.044670727 -0.18055992 0.14332911 -0.11937068
0.0022022245 -0.16778652 -0.15046677 0.14121513 0.1513123 0.10113036 -0.07583906 0.030984668
0.06027103 0.048996367 -0.09534599 0.061181556 0.043986287 -0.004032769 -0.027971085 0.08599141
00000000: d2d2 f8bd ba6e 9c3d 6978 0bbe 04bf cf3c
00000010: 606e 393e c61d e93c 8d77 743d fae3 0b3e
00000020: dfb6 1b3e 35e4 ae3c 9770 c5bd 9a33 ae3d
00000030: 2d44 edbd 5bfd 363e 72b8 c0bd b105 383e
00000040: 884d bcbd ae01 f73d 541b 413e d648 9fbc
00000050: dbde 393e f55f e83d 1629 a1bc 2ab4 3dbd
00000060: d794 16bc aaca 50bd 4b42 383e a1d9 1ebd
00000070: a0eb aebd 2774 ccbc 4fe7 5d3b dbf9 e53d
00000080: c985 93bd 6917 423e ef8e 34be faab c93d
00000090: 0bce 553d 0dc0 0d3e 7d19 0f3e c264 593d
000000a0: 73d2 923c 6abb 413d 6b0a 05be 14a8 58be
000000b0: a376 e53d ab62 3f3e 49df 193d 4382 0f3e
000000c0: 9447 a43d 9567 18be 093b 32be 8905 c93d
000000d0: e285 d1bd 04ba 6fbd 9715 d53d 31af 38be
000000e0: 3a45 2dbe ea81 2abc f82a 55be a3c5 54bc
000000f0: 3b84 cd3d 74fa 3a3c c42a 8dbd e54c 83bd
00000100: e25b 5c3c af31 7dbb ca2d dabd bb56 afbd
00000110: ac31 fbbd 6ace 2f3c 215d d73b 21d5 4abe
00000120: be9e 403e 388e aabd 451d 6fbc b0a6 80bd
00000130: 66ef c7bd 1f6a 50bc a1d9 8dbc 1a51 55bd
00000140: b3f9 f33d 11a1 aa3c bd78 b23d 74aa ef3d
00000150: 9f7d 9e3d d0c2 abbd d40c 38be 209d 06be
00000160: 15e6 10be c5dd 86bd ecba d03c b8d4 ddbd
00000170: 7844 1fbe d49e d23d ed2d eb3c f5b4 24be
00000180: 7c8d a0bd a23c de3c 20d0 93bd e817 17be
00000190: 6515 6abb 3b95 dbbd ad54 d13d f7f1 233e
000001a0: f534 fd3c ab3f cebd 2e7a 1fbd 0926 b4bd
000001b0: 0921 efbd ae1b cd3d b96d 31be c8fb e3bd
000001c0: 95a3 f4bd 2716 ba3c eb7f 523d 4a77 fbbd
000001d0: 94b2 e23d 43be 23be e7ce 053e de5b 1f3e
000001e0: bc12 1cbe fb17 183c 9ebd 163e 53d3 743d
000001f0: f0e5 89bd 98ec 43be 6ad5 123e 934d 18bd
00000200: 0b4e 113e 3743 3fbe 477c 12be bd20 bfbd
00000210: b19d af3d 8e72 e93d 400e 96bc 796f 0cbe
00000220: 493c 5d3d 9675 4bbe 4b9c be3d 1b0c 373c
00000230: d5ba b0bd a3e7 73bd 27cd 4d3d 12bc e53d
00000240: 163d bf3d 860b 39be c80d 8e3d 39ea ba3d
00000250: 639d 3c3e 8d5f 27be 1eb5 f6bd 170e d93d
00000260: bbed debc 24f7 66bd 05dc 9e3d 1cea fa3d
00000270: 7488 06bd 2991 0abe 2d0e eebd 393c 4bbe
00000280: 185f 69bd 667d 5abd 7cd9 0f3e e36b 8b3d
00000290: 4272 1cbe 14f0 2d3c 7601 1f3e e9f5 943d
000002a0: e517 cdbd 720b ab3d 076f 3dbe bf7a 413e
000002b0: 4f76 cb3d a823 8bbd ba11 fdbd 399b 61bd
000002c0: 80b3 c93d 60a3 57bc 3994 27be e525 fe3d
000002d0: 5aca 18be c1ed c7bc 6d69 383d bb34 e13d
000002e0: 4c89 e7bc 92b0 303e 6928 1ebe 39d3 b1bd
000002f0: 5386 ec3d cc97 493d 33c5 2dbe 2c10 c9bc
00000300: b6b0 26be 86ed 0e3c fc4d a2bb d05f 0b3e
00000310: 5d0a bfbd 27bd dbbd 7564 e6bd f3f3 3ebd
00000320: 58f0 b6bd 9b1d 963d 0793 b63d 7233 363d
00000330: a320 65bd 8546 5b3d 9043 14be 4807 f0bd
00000340: 072f bbbd f08d 86bb 72a9 bbbd 2e64 22be
00000350: 1a97 acbd 6a19 ac3d 63b3 43bc 3e2d fc3d
00000360: 094d 9abd 5e72 a6bd 1585 a7bd c80e fe3d
00000370: 77ea ddbd 8cfb 6cbd 6e78 353e f710 0a3e
00000380: c793 4b3d 6a26 183e 019d 563e 3678 d9bd
00000390: 8155 eebc 59ee d0bd f989 3c3c ceae 8ebd
000003a0: ba2f 8dbd 966f ccbd b6ea c33d 4cf0 17be
000003b0: a7f8 36bd b3e4 38be dec4 123e 9d78 f4bd
000003c0: 3253 103b 3bd0 2bbe f613 1abe b39a 103e
000003d0: 9df1 1a3e 6f1d cf3d 8251 9bbd 8fd3 fd3c
000003e0: c1de 763d 6ab0 483d c244 c3bd 8399 7a3d
000003f0: f72a 343d 5125 84bb 9e23 e5bc 441c b03d

layer2.0.bn2.weight f4 [10]
0.9904877 1.0074745 0.97083247 0.99656403 0.984294 0.99998486 1.0285525 0.9922701
0.98095345 0.9850888
00000000: 9a90 7d3f edf4 803f 7a88 783f d21e 7f3f
00000010: b1fa 7b3f 02ff 7f3f 9ca7 833f 6a05 7e3f
00000020: c41f 7b3f c82e 7c3f

layer2.0.bn2.bias f4 [10]
0.013596895 0.03280228 0.02243978 0.016994435 0.051240094 0.0001871263 0.013887544 0.010576581
0.06150845 0.062703244
00000000: 83c5 5e3c af5b 063d a1d3 b73c ea37 8b3c
00000010: 22e1 513d 5537 4439 9588 633c 6549 2d3c
00000020: 49f0 7b3d 8f6a 803d

layer2.0.bn2.running_mean f4 [10]
0.1837106 -0.006138072 -0.21242248 -0.15260944 -0.043110766 -0.059891295 -0.18232672 -0.07255948
0.013946121 -0.2669401
00000000: a21e 3c3e e121 c9bb 4785 59be a645 1cbe
00000010: ea94 30bd 9350 75bd dbb3 3abe 119a 94bd
00000020: 457e 643c 5fac 88be

layer2.0.bn2.running_var f4 [10]
0.27741808 0.28972104 0.20193034 0.1702248 0.092020296 0.27093455 0.34788755 0.3876304
0.07949191 0.28685844
00000000: be09 8e3e 5156 943e d4c6 4e3e 694f 2e3e
00000010: 2375 bc3d efb7 8a3e 511e b23e 7e77 c63e
00000020: a8cc a23d 1cdf 923e

layer2.0.se.fc.0.weight f4 [2, 10]
0.24045704 0.2793745 -0.24957675 0.20929977 0.26661098 0.08877469 0.11205513 0.1377361
0.26709053 0.17298177 -0.070668526 -0.038036462 -0.13220552 0.23064941 0.2367765 0.03597576
0.13442092 0.17245363 -0.05345091 -0.1538786
00000000: 5f3a 763e 2d0a 8f3e 0c91 7fbe ae52 563e
00000010: 3c81 883e 81cf b53d 297d e53d b10a 0d3e
00000020: 17c0 883e 2222 313e a9ba 90bd 1fcc 1bbd
00000030: e260 07be 5c2f 6c3e 8a75 723e 525b 133d
00000040: a3a5 093e af97 303e 57ef 5abd 5a92 1dbe

layer2.0.se.fc.2.weight f4 [10, 2]
0.56193537 -0.44872856 -0.02267668 -0.096990794 -0.6141078 -0.2569969 -0.5556636 -0.4742386
-0.64072156 0.18404947 0.3667817 0.5327465 0.54220796 0.53857905 -0.64732873 0.48641646
-0.23823856 0.4350761 -0.2724159 -0.34743813
00000000: ffda 0f3f c0bf e5be 72c4 b9bc 1ca3 c6bd
00000010: 2b36 1dbf 1995 83be f83f 0ebf 67cf f2be
00000020: 5406 24bf 7777 3c3e d0ca bb3e 1362 083f
00000030: 24ce 0a3f 51e0 093f 56b7 25bf 940b f93e
00000040: cff4 73be 4bc2 de3e 197a 8bbe 69e3 b1be

layer2.0.shortcut.0.weight f4 [10, 5, 1]
-0.030704822 -0.42797476 -0.11059939 0.26110527 0.32531795 -0.33160535 0.30614394 0.24655028
-0.28217947 0.14105307 0.12490646 0.41843212 -0.1422729 0.12166635 -0.378351 -0.33284733
-0.08068392 0.23884903 -0.3490204 0.36366782 -0.15151027 0.34563076 0.37535492 0.4135401
-0.25544184 0.44452554 0.28384358 0.33856136 0.01554453 0.32836315 0.34092095 -0.47087306
-0.06708464 0.12580916 0.1348517 0.30745384 0.23934664 0.019413335 -0.19931345 0.173607
-0.2999895 0.44570887 0.019722737 -0.11233623 0.03208783 -0.13558413 0.38227847 0.13421637
-0.10682587 0.4278304
00000000: ae88 fbbc 821f dbbe ef81 e2bd 97af 853e
00000010: 1390 a63e 2dc8 a9be e6be 9c3e ad77 7c3e
00000020: d479 90be 3770 103e f5ce ff3d bc3c d63e
00000030: fdaf 11be 352c f93d 39b7 c1be f76a aabe
00000040: 9c3d a5bd d794 743e cdb2 b2be ab32 ba3e
00000050: 8225 1bbe 84f6 b03e 852e c03e 87bb d33e
00000060: 46c9 82be da98 e33e f253 913e ea57 ad3e
00000070: 7cae 7e3c 371f a83e 318d ae3e 4616 f1be
00000080: ac63 89bd 1ed4 003e 9016 0a3e 976a 9d3e
00000090: 4917 753e b708 9f3c d318 4cbe 09c6 313e
000000a0: 3998 99be f433 e43e 9491 a13c 8a10 e6bd
000000b0: 876e 033d 91d6 0abe 01ba c33e 0470 093e
000000c0: 86c7 dabd 960c db3e

layer2.0.shortcut.1.weight f4 [10]
0.9846035 0.9997963 1.0105132 0.97707564 1.0027753 0.9806529 1.0274225 1.0198895
1.0109979 1.0211507
00000000: fa0e 7c3f a6f2 7f3f 7f58 813f a121 7a3f
00000010: f15a 803f 120c 7b3f 9582 833f bd8b 823f
00000020: 6168 813f 11b5 823f

layer2.0.shortcut.1.bias f4 [10]
0.010429222 0.027779493 0.025642376 0.012398872 0.034504388 -0.0025365823 0.012620831 0.0058341497
0.05553472 0.059076495
00000000: 54df 2a3c d291 e33c f60f d23c a324 4b3c
00000010: 7954 0d3d ca3c 26bb 9ac7 4e3c 652c bf3b
00000020: 6078 633d 32fa 713d

layer2.0.shortcut.1.running_mean f4 [10]
0.079337135 0.07800548 0.062398512 -0.045432776 0.3699136 0.60327697 -0.036380358 0.21005353
0.13170192 0.4275866
00000000: 827b a23d 56c1 9f3d 9595 7f3d b817 3abd
00000010: 5165 bd3e 5c70 1a3f 9203 15bd 4618 573e
00000020: dedc 063e a1ec da3e

layer2.0.shortcut.1.running_var f4 [10]
0.34244475 0.27060145 0.19792725 0.19517227 0.46167246 0.25305974 0.39571217 0.14556693
0.24978003 0.20143661
00000000: eb54 af3e 468c 8a3e 71ad 4a3e 3ddb 473e
00000010: 5560 ec3e 0c91 813e c99a ca3e 7f0f 153e
00000020: 56c6 7f3e 6645 4e3e

layer2.1.conv1.weight f4 [10, 10, 3]
0.08400365 0.085365556 -0.03229418 -0.08081688 -0.16461359 -0.03454399 0.020783972 0.04453515
0.09958524 -0.008832469 0.07967725 -0.018912975 -0.12575619 -0.06993787 -0.0038001868 0.017903212
0.042866353 0.036262088 -0.113998175 -0.05705306 -0.029078407 -0.06118047 0.056343917 -0.09023076
-0.15954624 0.06654875 -0.04714896 0.08870498 -0.17030475 -0.023576168 -0.16559397 -0.07352962
-0.0159343 -0.11247166 -0.15102181 -0.11988417 -0.08671448 0.087511346 0.06334151 -0.1653877
-0.11732061 -0.09098744 0.06807916 -0.11872644 0.09613735 -0.056969486 -0.13578644 -0.08762069
0.15001749 0.1977794 -0.09582253 -0.062094055 0.12389303 0.066304155 0.16475023 0.00064809405
-0.12659387 0.058214016 -0.08654791 -0.022666056 -0.1360791 0.062316023 -0.07338799 -0.21658388
0.16170971 -0.07687291 0.13225126 0.10718466 -0.010302533 -0.115293026 0.07252448 -0.08682107
-0.13721707 -0.03585425 0.002934613 -0.06234317 0.059078764 -0.16018794 0.14169797 0.012969504
-0.12422851 0.08392616 0.14031829 -0.0043998756 -0.15590811 -0.09635591 -0.09640046 -0.12979805
-0.020804694 0.032680955 -0.13026373 0.08529898 -0.14802755 -0.12237039 0.13867284 0.08958574
-0.13788714 -0.12867765 0.1168661 -0.10469742 0.1816554 -0.028457602 -0.057763785 0.08228797
-0.16964619 -0.1608114 0.06919583 0.12039891 0.123308465 0.0017937983 0.073969014 0.09604763
0.1684511 -0.025680747 0.13677296 -0.070092894 0.102257945 -0.061064642 0.13283789 0.016022464
0.013231102 0.09530343 0.1256791 -0.15025377 0.021774538 -0.0050283438 0.041777965 -0.11357538
0.02061908 -0.0463567 0.117513515 0.023174845 0.12889539 -0.08673896 -0.038040724 -0.079254605
0.15660669 -0.14195643 0.1755402 0.023510378 -0.053812712 -0.06288195 -0.1763199 0.08434328
0.02703211 -0.06085694 0.08226267 -0.16065837 -0.16550778 0.109711856 0.13529186 0.08635664
0.055165995 0.0025498087 -0.13817482 -0.046800293 -0.14727066 -0.047440935 0.054037325 0.17770728
-0.0046713203 0.07974161 0.05772737 0.088384844 0.024480497 0.11524373 0.1199884 0.0119762
-0.03290969 -0.05723561 -0.14030191 0.07868543 -0.036948882 -0.15912521 0.061371874 -0.15920018
0.03291302 -0.07451056 0.029543443 0.13677621 0.023503466 -0.09793529 0.09183431 0.096464515
-0.20562024 0.15391102 -0.0076677627 -0.16268033 -0.11614321 -0.06365456 -0.1348403 -0.16323999
-0.16344987 -0.15386245 -0.16433889 0.10572886 0.021767672 0.03491868 0.12517615 -0.02524437
0.14915791 -0.10286252 -0.083212174 -0.17305788 0.12177177 -0.20472436 -0.09591492 -0.026656458
0.17425045 -0.15910614 -0.072168894 0.15160997 -0.12293579 0.023596024 -0.0212041 0.10230239
0.15573609 0.03880553 0.03051529 -0.16931608 -0.0027015444 -0.028372122 -0.118653834 -0.10108745
-0.042557403 -0.12732549 -0.106466725 0.11691351 0.17545389 -0.12221927 0.15344746 0.12785284
0.086543195 0.12941585 -0.08677716 -0.19448361 -0.0128383925 0.058981974 -0.016622983 0.023717089
0.029922327 -0.0982315 -0.16746448 -0.11476351 -0.062481053 0.031659868 -0.09080667 -0.11627049
0.077696264 0.066100314 0.17752557 -0.039187748 0.16241813 0.020363651 -0.0072668656 -0.05428811
00000000: 1b0a ac3d 23d4 ae3d e746 04bd 5283 a5bd
00000010: 7790 28be 007e 0dbd 2643 aa3c 7d6a 363d
00000020: 59f3 cb3d 0fb6 10bc d32d a33d 62ef 9abc
00000030: 3bc6 00be 963b 8fbd 8e0c 79bb c2a9 923c
00000040: a194 2f3d 8e87 143d e077 e9bd 78b0 69bd
00000050: d735 eebc 5f98 7abd e1c8 663d e8ca b8bd
00000060: 1760 23be b64a 883d 451f 41bd f5aa b53d
00000070: 5e64 2ebe cf22 c1bc 7791 29be b396 96bd
00000080: a688 82bc 8b57 e6bd 76a5 1abe d585 f5bd
00000090: 5c97 b1bd 2639 b33d 32b9 813d 655b 29be
000000a0: ca45 f0bd 9f57 babd 166d 8b3d d926 f3bd
000000b0: a9e3 c43d d658 69bd 9a0b 0bbe 7a72 b3bd
000000c0: 2f9e 193e af86 4a3e 9a3e c4bd 5656 7ebd
000000d0: a1bb fd3d 79ca 873d 49b4 283e dbe4 293a
000000e0: d3a1 01be d271 6e3d 0840 b1bd 2aae b9bc
000000f0: 5258 0bbe 163f 7f3d 714c 96bd 2ac8 5dbe
00000100: 3b97 253e 8b6f 9dbd e06c 073e a283 db3d
00000110: f5cb 28bc c01e ecbd b787 943d 3fcf b1bd
00000120: a282 0cbe e8db 12bd a352 403b 8d5b 7fbd
00000130: 93fc 713d 4f08 24be 4619 113e 0b7e 543c
00000140: 846b febd 7be1 ab3d 99af 0f3e d52c 90bb
00000150: 60a6 1fbe 3f56 c5bd 9b6d c5bd c8e9 04be
00000160: 9b6e aabc 77dc 053d db63 05be 3bb1 ae3d
00000170: 8994 17be 549d fabd 4100 0e3e ba78 b73d
00000180: 4932 0dbe 13c4 03be 7e57 ef3d 9a6b d6bd
00000190: e003 3a3e eb1f e9bc b899 6cbd 9886 a83d
000001a0: bbb7 2dbe beab 24be 8bb6 8d3d b493 f63d
000001b0: 2689 fc3d e21d eb3a 117d 973d 9fb4 c43d
000001c0: 727e 2c3e 6e60 d2bc 360e 0c3e dd8c 8fbd
000001d0: 9d6c d13d eb1e 7abd a806 083e 8b41 833c
000001e0: 44c7 583c 722e c33d 06b2 003e 20dc 19be
000001f0: 8460 b23c cec4 a4bb 5f1f 2b3d 359a e8bd
00000200: 58e9 a83c 86e0 3dbd edaa f03d 2cd9 bd3c
00000210: 27fd 033e 32a4 b1bd 97d0 1bbd 3d50 a2bd
00000220: 815d 203e 075d 11be cfc0 333e d698 c03c
00000230: b86a 5cbd 40c8 80bd 348d 34be 2bbc ac3d
00000240: 7272 dd3c 2045 79bd 5579 a83d a183 24be
00000250: df7a 29be 9cb0 e03d f389 0a3e c0db b03d
00000260: bdf5 613d b11a 273b b37d 0dbe aab1 3fbd
00000270: 1fce 16be 6d51 42bd 3e56 5d3d e6f8 353e
00000280: e011 99bb 924f a33d 8973 6c3d 1d03 b53d
00000290: 538b c83c e804 ec3d 7abc f53d d337 443c
000002a0: 50cc 06bd e36f 6abd 4eab 0fbe d425 a13d
000002b0: b657 17bd b8f1 22be 1361 7b3d 5f05 23be
000002c0: cecf 063d fe98 98bd 1705 f23c 100f 0c3e
000002d0: 578a c03c 4c92 c8bd a013 bc3d 308f c53d
000002e0: 1d8e 52be da9a 1d3e db41 fbbb ac95 26be
000002f0: 7edc edbd 525d 82bd 9313 0abe 6228 27be
00000300: 675f 27be 1e8e 1dbe 7448 28be 5f88 d83d
00000310: 1e52 b23c e406 0f3d 2d2e 003e 48cd cebc
00000320: dabc 183e 96a9 d2bd 256b aabd 1636 31be
00000330: 7a63 f93d 43a3 51be 0b6f c4bd a55e dabc
00000340: b66e 323e b8ec 22be 49cd 93bd a53f 1b3e
00000350: c2c5 fbbd 734c c13c 39b4 adbc ea83 d13d
00000360: 4879 1f3e 8cf2 1e3d 34fb f93c 3261 2dbe
00000370: 650c 31bb a76c e8bc c800 f3bd f006 cfbd
00000380: ac50 2ebd 9d61 02be 3a0b dabd 5a70 ef3d
00000390: 2faa 333e 194e fabd 5521 1d3e dbeb 023e
000003a0: 8f3d b13d 9785 043e 39b8 b1bd b626 47be
000003b0: 1f58 52bc 1597 713d ec2c 88bc 574a c23c
000003c0: ab1f f53c 992d c9bd cf7b 2bbe 2209 ebbd
000003d0: 22ec 7fbd c7ad 013d d9f8 b9bd 391f eebd
000003e0: 381f 9f3d 9a5f 873d 43c9 353e 5583 20bd
000003f0: f050 263e acd1 a63c e31e eebb 365d 5ebd

layer2.1.bn1.weight f4 [10]
1.0030327 0.97344106 0.9905736 1.0033864 0.98716104 0.9963451 1.0168614 1.0288478
0.9953455 0.99499774
00000000: 6063 803f 6f33 793f 3b96 7d3f f76e 803f
00000010: 96b6 7c3f 7910 7f3f 8428 823f 49b1 833f
00000020: f6ce 7e3f 2cb8 7e3f

layer2.1.bn1.bias f4 [10]
0.0040957425 -0.004733478 0.015420698 0.012197454 0.012105215 -0.011368728 0.020279711 0.023639299
0.023805045 0.017273888
00000000: 9435 863b 4b1b 9bbb 18a7 7c3c d5d7 473c
00000010: f454 463c e743 3abc a321 a63c 34a7 c13c
00000020: cc02 c33c f881 8d3c

layer2.1.bn1.running_mean f4 [10]
-0.11702996 -0.18527438 -0.12860078 0.06913609 0.016315712 0.057319026 -0.31584537 -0.025575912
-0.030875947 0.22282039
00000000: 67ad efbd 91b8 3dbe ecaf 03be 3997 8d3d
00000010: 87a8 853c 5bc7 6a3d 7cb6 a1be 9384 d1bc
00000020: 8eef fcbc 072b 643e

layer2.1.bn1.running_var f4 [10]
0.07054289 0.11085885 0.10005432 0.17099941 0.2087599 0.13505656 0.19509546 0.052983295
0.12677754 0.09298322
00000000: ca78 903d f709 e33d 48e9 cc3d 781a 2f3e
00000010: 28c5 553e 444c 0a3e 1bc7 473e 0305 593d
00000020: f9d1 013e fd6d be3d

layer2.1.conv2.weight f4 [10, 10, 3]
0.02252128 -0.11465145 0.096368 -0.053807486 0.14179917 0.050915137 0.020669783 0.05975029
0.1384977 0.15012397 0.022229996 0.014227615 -0.011270502 0.086002395 -0.09857775 -0.09237308
0.0027361778 0.07001504 0.09569134 -0.075404905 -0.016187089 0.10578481 0.064695545 -0.0012086151
0.041969836 -0.073151834 -0.15839012 -0.008790002 0.002336069 -0.11653696 0.012713692 -0.1340956
0.18971454 -0.04802003 -0.01806039 -0.13883193 0.014623433 0.15918894 0.0481593 -0.0014528013
-0.08913576 0.042188477 0.12282312 0.11940544 -0.06856577 -0.11616367 -0.09542649 0.12472517
0.09713318 0.024908274 0.05575907 0.14536263 0.10938249 -0.1013209 -0.07679544 0.015290741
-0.1736196 0.03567536 -0.10787717 -0.1631829 0.008383267 0.0376679 0.050285645 0.0865396
-0.15731822 -0.0018276607 0.059213582 -0.061540477 0.0037930536 -0.13636504 -0.093848 -0.078783
-0.029064883 -0.17759486 0.06607826 -0.06483682 0.18313211 0.14145495 -0.060431417 0.032573495
0.054693244 0.08614302 -0.0671887 -0.10776829 0.07629304 0.039054863 0.08604863 -0.0020091573
0.043299943 -0.14389385 0.10879258 -0.097593136 0.12260884 0.09552881 -0.14547268 0.12082454
-0.16301452 0.12960938 -0.058846574 -0.007611426 -0.18088372 0.053352993 0.10690555 -0.058306336
-0.14503689 0.10756975 -0.1042621 -0.009281843 -0.09439667 -0.031151893 -0.07112633 -0.045089047
0.06299744 -0.18278807 0.028394947 -0.050222017 0.011014817 0.09534209 0.18026301 0.080789916
0.091201544 -0.039393134 0.07690636 -0.041945487 -0.07212686 0.037936997 0.08626096 0.08355967
0.19190216 -0.17552918 -0.0566906 -0.19533089 -0.121736385 0.013803301 -0.05185369 0.14249727
-0.022779156 0.024315078 0.18271093 -0.1534212 0.14692025 -0.10147886 0.13219358 0.16076393
-0.03942351 0.09489641 -0.1285489 0.07031327 -0.0882743 -0.08510325 0.12831433 0.17444597
0.028099617 -0.013000093 -0.15089723 0.13610102 -0.12507768 -0.02836856 -0.08204612 0.07305364
-0.08162406 0.16777876 -0.12982999 -0.08895579 0.16651118 -0.108153895 -0.09227982 0.0011666273
-0.09429929 0.081443064 0.04674472 0.08549811 -0.08692093 -0.1382818 0.16397649 0.1125024
0.031927112 0.04688263 -0.04421014 0.09520519 0.0900626 -0.097156204 -0.16366722 0.0057274285
0.18161406 0.17997196 -0.024634778 0.12736969 0.13691187 0.09738636 -0.030451704 -0.07181437
-0.037675466 0.10213066 0.12370813 0.030142978 0.008676011 -0.13538751 -0.039688844 0.07981423
0.053700585 -0.17861596 0.07635255 -0.043054443 0.016437713 -0.09844243 -0.025148911 0.055652697
0.055618085 0.12343459 -0.08063106 0.12975395 0.0929844 0.13289276 0.14449656 -0.057033997
-0.14946848 0.12110747 -0.13813008 0.17682211 0.06763994 -0.0045709806 0.03159125 0.10819691
-0.14004071 0.032438025 0.09176066 -0.09047428 0.13184075 -0.07554884 -0.06554709 0.05854649
0.19536829 -0.0096958615 -0.1053883 -0.13763145 -0.05658604 -0.007356224 0.044378437 -0.15442438
-0.12089248 0.15696947 -0.017475354 0.1488735 -0.05340851 0.016520575 0.13922806 -0.053852625
0.13657844 0.08219824 -0.009376241 0.12783527 0.108937435 -0.036640566 -0.00012190862 -0.12639426
00000000: 8c7e b83c 61ce eabd 965c c53d 3d65 5cbd
00000010: cd33 113e 648c 503d ad53 a93c b8bc 743d
00000020: 57d2 0d3e 19ba 193e ae1b b63c f11a 693c
00000030: e9a7 38bc 0622 b03d 22e3 c9bd 192e bdbd
00000040: 7251 333b 0c64 8f3d d2f9 c33d e36d 9abd
00000050: c99a 84bc b5a5 d83d 197f 843d 656a 9eba
00000060: 90e8 2b3d a1d0 95bd 0531 22be f103 10bc
00000070: bc18 193b eeaa eebd 174d 503c 5b50 09be
00000080: 8744 423e a7b0 44bd 62f3 93bc f529 0ebe
00000090: 2097 6f3c 6d02 233e b042 453d ec6b beba
000000a0: cf8c b6bd d3cd 2c3d b08a fb3d d78a f43d
000000b0: 366c 8cbd 38e7 edbd f76e c3bd e96f ff3d
000000c0: c3ed c63d 700c cc3c 9f63 643d f1d9 143e
000000d0: ed03 e03d 5581 cfbd ed46 9dbd 0486 7a3c
000000e0: 56c9 31be 5420 123d b5ee dcbd 6b19 27be
000000f0: f859 093c a849 1a3d 52f8 4d3d ac3b b13d
00000100: 0718 21be 1e8e efba f189 723d de11 7cbd
00000110: e194 783b 47a3 0bbe 6133 c0bd fb58 a1bd
00000120: 7a19 eebc 6ddb 35be 0a54 873d 2bc9 84bd
00000130: fc86 3b3e 91d9 103e ef86 77bd c96b 053d
00000140: 0606 603d c06b b03d 3b9a 89bd 9fb5 dcbd
00000150: 863f 9c3d fef7 1f3d 443a b03d 11ac 03bb
00000160: 485b 313d e958 13be a5ce de3d e9de c7bd
00000170: 581a fb3d 9ca4 c33d caf6 14be db72 f73d
00000180: 47ed 26be 52b8 043e 1b09 71bd 4569 f9bb
00000190: 9539 39be ab88 5a3d 4cf1 da3d a0d2 6ebd
000001a0: 8d84 14be 874d dc3d 5e87 d5bd df12 18bc
000001b0: 0b53 c1bd 4132 ffbc aeaa 91bd 4baf 38bd
000001c0: cd04 813d cc2c 3bbe 859c e83c 9ab5 4dbd
000001d0: 7e77 343c b742 c33d de96 383e 2f75 a53d
000001e0: e0c7 ba3d b25a 21bd 1581 9d3d 08cf 2bbd
000001f0: 3fb7 93bd d363 1b3d 96a9 b03d 5521 ab3d
00000200: 0082 443e ecbd 33be 6734 68bd d204 48be
00000210: ed50 f9bd 3e27 623c 8964 54bd ceea 113e
00000220: 5a9b babc 6a30 c73c 9318 3b3e 721a 1dbe
00000230: 4372 163e 26d4 cfbd c15d 073e 4d9f 243e
00000240: 8c7a 21bd 0d59 c23d 53a2 03be 6700 903d
00000250: 28c9 b4bd 9d4a aebd d564 033e f7a1 323e
00000260: 2b31 e63c 58fe 54bc ce84 1abe 115e 0b3e
00000270: 5d14 00be 2f65 e8bc cc07 a8bd 269d 953d
00000280: 842a a7bd 32ce 2b3e 27f2 04be 742e b6bd
00000290: e881 2a3e ca7f ddbd 34fd bcbd 84e9 983a
000002a0: fc1f c1bd 9fcb a63d 6477 3f3d a219 af3d
000002b0: 9a03 b2bd bf99 0dbe 74e9 273e a967 e63d
000002c0: 01c6 023d 0008 403d b115 35bd f0fa c23d
000002d0: be72 b83d d5f9 c6bd 6198 27be 27ad bb3b
000002e0: 09f9 393e 924a 383e e0ce c9bc 336d 023e
000002f0: a032 0c3e 8072 c73d da75 f9bc 6a13 93bd
00000300: 9751 1abd e129 d13d b05a fd3d 68ee f63c
00000310: d425 0e3c 06a3 0abe c590 22bd a575 a33d
00000320: 25f5 5b3d 1ae7 36be ba5e 9c3d db59 30bd
00000330: 62a8 863c 2f9c c9bd 1705 cebc 15f4 633d
00000340: cacf 633d 46cb fc3d e621 a5bd 38de 043e
00000350: 9b6e be3d 0a15 083e e8f6 133e 7b9c 69bd
00000360: 440e 19be 3107 f83d f971 0dbe db10 353e
00000370: cf86 8a3d 2ac8 95bb d465 013d 5796 dd3d
00000380: d566 0fbe bcdd 043d 03ed bb3d 944a b9bd
00000390: 4301 073e 5ab9 9abd 8d3d 86bd 72ce 6f3d
000003a0: a00e 483e 64db 1ebc d2d5 d7bd 42ef 0cbe
000003b0: c3c6 67bd 7b0c f1bb 2ac6 353d 6d21 1ebe
000003c0: 7a96 f7bd 9bbc 203e 7928 8fbc 4b72 183e
000003d0: e2c2 5abd 2856 873c cd91 0e3e 9294 5cbd
000003e0: 38db 0b3e 8d57 a83d ce9e 19bc 40e7 023e
000003f0: 971a df3d 6b14 16bd 31a9 ffb8 7f6d 01be

layer2.1.bn2.weight f4 [10]
0.9902842 0.98783356 0.97912794 0.99932724 1.0011557 0.9931951 0.9892893 0.9926691
0.9963305 1.01759
00000000: 4483 7d3f a9e2 7c3f 21a8 7a3f e9d3 7f3f
00000010: df25 803f 0942 7e3f 1042 7d3f 901f 7e3f
00000020: 840f 7f3f 6440 823f

layer2.1.bn2.bias f4 [10]
0.016980652 0.0023137757 0.045167167 0.012241961 0.010679252 0.0059548314 0.029716551 0.0005222045
0.047592916 0.049395263
00000000: 021b 8b3c b7a2 173b 3501 393d 8292 483c
00000010: 08f8 2e3c bf20 c33b 2070 f33c 8de4 083a
00000020: caf0 423d b052 4a3d

layer2.1.bn2.running_mean f4 [10]
0.104255095 0.025949787 -0.029267428 -0.060298312 0.06281539 0.023223206 0.124514505 0.10543061
-0.035767455 -0.01481021
00000000: b283 d53d a694 d43c 3fc2 efbc 5dfb 76bd
00000010: 5ba5 803d 983e be3c 7601 ff3d 01ec d73d
00000020: e580 12bd 86a6 72bc

layer2.1.bn2.running_var f4 [10]
0.05115966 0.07632292 0.08081488 0.06646125 0.13473038 0.08063634 0.10177741 0.104497254
0.08241859 0.11901454
00000000: cb8c 513d 314f 9c3d 4682 a53d d61c 883d
00000010: c3f6 093e aa24 a53d ad70 d03d a802 d63d
00000020: 14cb a83d e5bd f33d

layer2.1.se.fc.0.weight f4 [2, 10]
-0.13431813 -0.15865315 -0.21456516 0.1890711 0.26718128 0.117447786 -0.23192368 -0.2335485
0.27755097 0.16513528 0.21666002 0.13549851 0.15677084 0.15944888 0.3186715 0.25472704
0.17312065 0.026563462 -0.12601899 0.14202772
00000000: b18a 09be f975 22be f8b6 5bbe db9b 413e
00000010: fccb 883e 7788 f03d 677d 6dbe 5727 6fbe
00000020: 291b 8e3e 3919 293e 20dc 5d3e 1fc0 0a3e
00000030: 8988 203e 9146 233e e928 a33e 956b 823e
00000040: 8a46 313e 9e9b d93c 1f0b 01be b76f 113e

layer2.1.se.fc.2.weight f4 [10, 2]
0.11597183 -0.17251529 -0.038593195 -0.5249942 -0.0034001034 -0.53130645 -0.01543085 -0.6589961
0.6082965 0.63049376 0.51677734 -0.6083631 0.03775381 0.08655722 0.65516686 0.361359
-0.30090374 0.5749891 -0.11095225 -0.6550561
00000000: a482 ed3d d9a7 30be e613 1ebd 0566 06bf
00000010: 45d4 5ebb b303 08bf add1 7cbc f8b3 28bf
00000020: 52b9 1b3f 0a68 213f 854b 043f afbd 1bbf
00000030: bda3 1a3d e944 b13d 04b9 273f 0c04 b93e
00000040: 0e10 9abe 7c32 133f ef3a e3bd c2b1 27bf
